model/nokkaew_model.pth (torch, 678373 bytes, 102 tensors)

token_embedding_table.weight f4 [452, 64]
-1.4213847 -2.6010153 1.2001957 -0.5193543 1.0404565 1.669835 -1.6633503 -1.251011
-0.7598979 -1.6086057 -1.6933677 1.4589716 -1.0285976 0.90687686 -0.57725674 1.5914861
-1.0808871 0.97813815 1.6224926 0.8680264 -1.0719146 -1.3186803 -0.31439382 -0.6063828
0.30239174 -1.2795057 -0.7141494 -0.74131286 0.7601885 -0.80860883 -0.99915785 0.59866834
0.4857399 0.14950886 -2.0271502 -1.0572863 0.36797523 -0.542837 -0.21075623 -0.1632799
-2.5892274 0.18525839 0.2018813 0.038063094 -0.07984976 0.6868082 0.075854994 -0.74634016
0.9062004 0.3472595 0.53417456 -0.7214946 -0.096958034 0.056368366 -1.843283 1.2297865
0.8585036 -0.51556 -0.5625385 -1.2008474 -0.06007575 -1.3948199 -1.1618357 0.31263697
-0.9617621 -0.5789869 -0.53657675 -1.4025929 -0.91139287 -0.6030321 0.2608226 0.041512825
1.360416 0.4338195 -0.673381 -1.0758758 -0.5824079 -1.1696229 -0.061462983 -0.6536272
0.21816689 0.45227167 -0.8883632 -1.6551632 -1.4535414 1.116546 -2.2602208 0.42457345
1.5003632 0.1608312 1.1160083 -0.6619252 -0.23161614 0.23939437 1.436706 0.34406877
0.19348644 2.0342197 -0.31038213 1.372215 -0.16271916 -1.6392658 0.57131433 0.88889945
-0.08365867 0.07889244 -0.7083636 0.016710954 1.0915372 -1.408576 -0.037821993 0.13463432
0.28422663 -0.29395366 -1.3228285 -1.8444948 -0.6611854 0.8741539 1.419233 1.080303
-0.14769794 0.4410276 -0.47603175 -0.14633547 2.5626929 -1.327957 0.2746819 0.80810213
1.1136378 -1.6235353 -0.805846 -0.020780874 -0.79979485 1.2255503 -2.0348692 -1.8260753
-0.2845304 -0.77206784 -0.53390104 1.3070933 -1.7285345 0.9008498 0.038117148 -0.49590263
-0.16303372 0.4337138 1.61608 1.2348866 2.278203 -0.22167091 1.9452952 2.3106544
-1.7523084 0.99642885 -1.2522206 0.3883562 -0.4674317 -0.48190165 -0.39544097 -0.6859225
-1.3974496 -0.8203609 2.3189697 -0.69390833 0.30164424 -1.0545 0.89782894 1.0397121
-0.92182165 -0.2546361 -0.6627515 1.0876213 -0.21434176 -0.5653797 -0.09026576 0.26041332
-0.43264413 0.3949155 0.1852778 -0.13644631 0.73591095 0.46252048 0.7378538 2.2349925
-0.99041027 0.3399073 0.35195336 -0.8411286 -0.50465953 0.64092284 -0.3642808 -1.6898556
1.0821381 1.3697861 -0.0010627871 -0.22223206 -0.1992715 0.5946204 0.701931 0.24471664
-1.9803921 0.37425867 0.012052819 2.2237482 -1.1147828 0.21408574 -1.3211768 -2.027492
0.78422725 -0.124922074 -0.65016186 1.0685647 -1.3261695 -0.9975886 0.20614429 -0.22230165
-0.22481236 -2.4112468 -0.33671924 -1.2424344 -0.2514797 -0.0070160045 0.73548347 1.0135084
1.1713176 -1.5709087 -0.08528591 -0.3481757 0.5543714 2.2686584 -0.935383 0.42871386
-1.1924529 0.3601512 0.10484455 0.4978467 0.7709977 -0.64637697 1.5735121 -0.2777797
-0.15939061 -0.40699416 -0.23264739 -1.6628724 -1.5634056 0.85926414 2.3180957 -1.1862884
0.43218148 0.9888418 0.21755697 1.1742213 -0.4713926 -1.138639 -1.9470998 -0.8888306
00000000: efef b5bf 0977 26c0 03a0 993f 67f4 04bf
00000010: ae2d 853f 27bd d53f aae8 d4bf 2121 a0bf
00000020: ab88 42bf cbe6 cdbf 46c0 d8bf 95bf ba3f
00000030: 16a9 83bf 1529 683f 19c7 13bf d1b5 cb3f
00000040: 825a 8abf 4367 7a3f d6ad cf3f fa36 5e3f
00000050: 7f34 89bf 84ca a8bf 3af8 a0be e73b 1bbf
00000060: 17d3 9a3e d8c6 a3bf 7fd2 36bf aec6 3dbf
00000070: b79b 423f fd00 4fbf cfc8 7fbf 5442 193f
00000080: e6b2 f83e da18 193e d4bc 01c0 2855 87bf
00000090: 4067 bc3e 5ef7 0abf 7bd0 57be d932 27be
000000a0: e7b5 25c0 60b4 3d3e f9b9 4e3e 0ce8 1b3d
000000b0: 4588 a3bd aad2 2f3f dd59 9b3d 2610 3fbf
000000c0: c0fc 673f ffcb b13e aabf 083f dfb3 38bf
000000d0: ef91 c6bd 84e2 663d b3f0 ebbf a569 9d3f
000000e0: e4c6 5b3f bdfb 03bf 8602 10bf 5eb5 99bf
000000f0: fd11 76bd 7589 b2bf 08b7 94bf f411 a03e
00000100: 0a36 76bf 7c38 14bf 185d 09bf 2a88 b3bf
00000110: 0b51 69bf 5060 1abf 8a8a 853e 5a09 2a3d
00000120: 1d22 ae3f 971d de3e b262 2cbf 4cb6 89bf
00000130: af18 15bf 34b6 95bf 9cc0 7bbd 1d54 27bf
00000140: 2467 5f3e 2790 e73e c56b 63bf 63dc d3bf
00000150: a50d babf fbea 8e3f 75a7 10c0 b161 d93e
00000160: e70b c03f efb0 243e 5cd9 8e3f ee73 29bf
00000170: c82c 6dbe cc23 753e fbe5 b73f c829 b03e
00000180: 4f21 463e a830 0240 68ea 9ebe bea4 af3f
00000190: da9f 26be 76d3 d1bf a841 123f ea8e 633f
000001a0: 3d55 abbd 5c92 a13d 5157 35bf 69e5 883c
000001b0: 7eb7 8b3f 384c b4bf 3ceb 1abd 94dd 093e
000001c0: 2786 913e 1881 96be 7252 a9bf 6818 ecbf
000001d0: 7243 29bf 8dc8 5f3f 6da9 b53f 5e47 8a3f
000001e0: 213e 17be 5fce e13e 6fba f3be f7d8 15be
000001f0: 2903 2440 7ffa a9bf 1ba3 8c3e c8df 4e3f
00000200: af8b 8e3f 01d0 cfbf ec4b 4ebf a73c aabc
00000210: 5bbf 4cbf d5de 9c3f 4c3b 02c0 d6bc e9bf
00000220: f8ad 91be 3da6 45bf bdad 08bf d54e a73f
00000230: 9e40 ddbf 189e 663f ba20 1c3d f3e6 fdbe
00000240: 50f2 26be bc0f de3e b6db ce3f c410 9e3f
00000250: 14ce 1140 b3fd 62be 6fff f83f c3e1 1340
00000260: a44b e0bf f615 7f3f c448 a0bf a0d6 c63e
00000270: 3553 efbe d0bb f6be 3d77 cabe 9e98 2fbf
00000280: a1df b2bf 2c03 52bf 006a 1440 faa3 31bf
00000290: 1d71 9a3e dbf9 86bf 1ed8 653f 4915 853f
000002a0: 81fc 6bbf aa5f 82be 15aa 29bf 2d37 8b3f
000002b0: 687c 5bbe b9bc 10bf 41dd b8bd e554 853e
000002c0: 8883 ddbe 5d32 ca3e 77b9 3d3e 95b8 0bbe
000002d0: a964 3c3f 7ccf ec3e fde3 3c3f 1e0a 0f40
000002e0: 878b 7dbf 5408 ae3e 3b33 b43e 3454 57bf
000002f0: 5e31 01bf 8513 243f 0383 babe 304d d8bf
00000300: 8083 8a3f 2755 af3f 384d 8bba cd90 63be
00000310: d40d 4cbe 0b39 183f c0b1 333f 0097 7a3e
00000320: 7d7d fdbf d59e bf3e 3079 453c e451 0e40
00000330: 34b1 8ebf 4b39 5b3e 521c a9bf 6ec2 01c0
00000340: 1ec3 483f 25d7 ffbd 0271 26bf bac6 883f
00000350: ecbf a9bf f761 7fbf 7d17 533e 0ba3 63be
00000360: 3635 66be de51 1ac0 7766 acbe 1708 9fbf
00000370: f2c1 80be 83e6 e5bb a548 3c3f a5ba 813f
00000380: bced 953f 8913 c9bf 61aa aebd 1644 b2be
00000390: 49eb 0d3f b331 1140 4375 6fbf 6280 db3e
000003a0: 4ca2 98bf bd65 b83e bdb8 d63d c3e5 fe3e
000003b0: 1b60 453f f678 25bf d868 c93f 2439 8ebe
000003c0: 4b37 23be 8a61 d0be 1e3b 6ebe 01d9 d4bf
000003d0: ad1d c8bf bcf8 5b3f ae5b 1440 4cd8 97bf
000003e0: e446 dd3e bc24 7d3f 41c7 5e3e e24c 963f
000003f0: 5f5a f1be ecbe 91bf 913a f9bf 678a 63bf

position_embedding_table.weight f4 [32, 64]
-1.7509156 1.220115 -0.47787306 -0.41449475 -1.057614 0.43587828 -0.4897494 2.0691803
-0.71529955 1.2626168 0.62984306 0.5478174 -0.23518457 -1.1313828 -0.5449336 1.1595377
-1.9988695 -1.3807507 1.662258 0.7566724 0.64525205 1.4666636 -0.05202126 -0.44729203
0.21738222 0.6987475 2.2286024 -1.3723752 0.64655393 0.31818363 0.16400114 0.81468946
0.6901044 -1.5094612 -2.8029826 0.15702276 -0.00033117217 -0.7449064 -1.9973 -0.3016302
0.13161242 0.8444965 -1.0604562 0.48389608 -0.16083045 -0.23917413 0.7105582 1.298502
-1.0261912 0.50360817 -0.9431868 0.42336828 0.05672084 1.9727669 0.093957506 -0.51048434
-1.1304275 -1.5090518 -1.7812322 0.752531 0.34172788 0.63983405 -0.052525032 0.37454027
-1.019192 0.026305057 -1.0877714 -1.0890093 -2.5552907 -0.026429882 -0.94146377 1.4892561
-0.93158907 0.08311337 -0.3033248 2.3527462 -0.25421503 0.98331237 -0.51384246 -2.135922
-0.95731366 0.6711277 0.629461 0.529528 0.23625849 0.94236034 0.74843013 0.011631698
0.40073577 -0.5770039 0.5261706 -0.37736332 -0.6359207 0.19181192 -0.9078283 -0.29163662
0.8765185 1.0338206 1.1012429 1.3482811 2.234878 -0.03527764 -0.92797184 1.1077791
0.17195179 -0.9064165 -0.21214285 0.8493412 -0.018910471 1.0094589 -0.022491649 2.602079
0.20815423 -0.037087444 1.1347115 -0.5692381 -1.5566652 0.09512547 -0.92751396 0.14870766
0.5744668 -0.9522645 -0.80338275 1.1867622 -0.39559576 -0.012659163 -1.6870098 -0.69917625
2.1552045 -2.0083773 -1.8835093 0.48814464 -1.8074887 -0.28736404 -1.748217 1.5943671
-0.22920026 0.15744057 0.29336935 -1.3584869 0.011805677 0.7034826 0.24723463 1.1617484
-0.5216684 1.0318763 0.18696065 1.5895017 0.1626226 -0.21001855 -1.7931969 -0.46791142
-0.41828504 -0.6754579 -0.8676204 0.16070415 0.3748306 0.6418367 -0.14675295 -0.51989055
0.68679214 0.69730365 1.7000884 1.4745622 0.6367094 -0.7994135 0.31764743 -1.4987657
0.21556646 -0.45189357 -1.5631975 -0.53434736 0.86612374 0.31116766 -0.10332447 1.6630256
0.3381882 1.3202701 0.2905346 -0.44303125 -0.13879053 0.081882305 1.1543232 -0.5060665
-1.0142906 -0.5382504 1.2668042 0.07874555 -2.0336092 1.1079378 -0.6648284 -1.5288486
-0.5450807 0.7494823 0.2636257 0.7680668 -0.5782088 0.034253612 -0.01309445 1.2430809
-0.2290596 0.96407557 -0.06398069 0.41753122 1.9690684 -1.6414084 1.006768 0.10200747
1.2709335 -1.4458733 -1.1371329 0.5560085 -0.8849023 -0.12562898 0.58667576 0.077222556
-0.81997466 -0.6605349 0.9871471 0.86197513 -0.28564996 -0.12852061 0.3625669 0.74309695
0.49584642 0.7199545 0.22466536 0.16614278 -0.72578454 0.24729156 -0.6032592 2.8633442
0.09922328 -1.8484395 -0.19950327 -1.1655021 0.76604116 -1.444068 0.676956 1.1579727
-1.8694458 0.76749045 0.051107764 0.73802274 1.1021878 0.88023376 1.0350261 -0.02423828
0.6218983 -0.99913836 0.4773614 -0.5810321 0.8350382 1.1101896 -0.91776466 0.9451378
00000000: 011e e0bf ba2c 9c3f c7ab f4be a838 d4be
00000010: e55f 87bf 702b df3e 6fc0 fabe 736d 0440
00000020: df1d 37bf 6d9d a13f 653d 213f c33d 0c3f
00000030: 39d4 70be 27d1 90bf c580 0bbf bb6b 943f
00000040: f5da ffbf 70bc b0bf dfc4 d43f 48b5 413f
00000050: 3d2f 253f a2bb bb3f 3f14 55bd 7603 e5be
00000060: 7299 5e3e 1ee1 323f 6ca1 0e40 fea9 afbf
00000070: 8f84 253f f7e8 a23e eaef 273e 7d8f 503f
00000080: afaa 303f 0636 c1bf 1164 33c0 93ca 203e
00000090: 2da1 adb9 30b2 3ebf 87a7 ffbf 466f 9abe
000000a0: 68c5 063e ec30 583f 07bd 87bf 3ac1 f73e
000000b0: bdb0 24be 10ea 74be 24e7 353f 5035 a63f
000000c0: 3c5a 83bf 77ec 003f b174 71bf bac3 d83e
000000d0: 1d54 683d a083 fc3f cb6c c03d 1aaf 02bf
000000e0: d9b1 90bf 9c28 c1bf 6bff e3bf dfa5 403f
000000f0: f5f6 ae3e 2acc 233f 7d24 57bd bec3 bf3e
00000100: e274 82bf b47d d73c 183c 8bbf a864 8bbf
00000110: e289 23c0 7b83 d8bc c503 71bf f29f be3f
00000120: 9f7c 6ebf 5837 aa3d 634d 9bbe 6593 1640
00000130: 7928 82be 5cba 7b3f 2e8b 03bf f2b2 08c0
00000140: 8212 75bf 06cf 2b3f 5b24 213f 268f 073f
00000150: bfed 713e 873e 713f 1e99 3f3f e192 3e3c
00000160: 3d2d cd3e 87b6 13bf 1eb3 063f c435 c1be
00000170: b3cb 22bf 586a 443e 6f67 68bf 6551 95be
00000180: 8463 603f 3c54 843f 87f5 8c3f 7a94 ac3f
00000190: 3e08 0f40 497f 10bd 908f 6dbf b5cb 8d3f
000001a0: 2114 303e e90a 68bf fa3b 59be 6d6e 593f
000001b0: 22ea 9abc f335 813f 6840 b8bc 7688 2640
000001c0: 6226 553e 01e9 17bd 3a3e 913f 97b9 11bf
000001d0: ce40 c7bf 24d1 c23d 8e71 6dbf d246 183e
000001e0: 4210 133f 9bc7 73bf 7eaa 4dbf d3e7 973f
000001f0: 878b cabe 6168 4fbc f0ef d7bf 37fd 32bf
00000200: dfee 0940 4189 00c0 d516 f1bf 18ee f93e
00000210: ca5b e7bf 6121 93be 93c5 dfbf 3914 cc3f
00000220: 79b3 6abe 1a38 213e 8234 963e e6e2 adbf
00000230: 996c 413c 7017 343f 132b 7d3e 2cb4 943f
00000240: 0f8c 05bf 8614 843f 9d72 3f3e cb74 cb3f
00000250: 8a86 263e 1a0f 57be 7a87 e5bf 1692 efbe
00000260: 7529 d6be cfea 2cbf 5f1c 5ebf a18f 243e
00000270: cce9 bf3e 694f 243f 6846 16be 8c17 05bf
00000280: 9cd1 2f3f 7e82 323f 7f9c d93f 74be bc3f
00000290: 63ff 223f 5da6 4cbf afa2 a23e 8ed7 bfbf
000002a0: 74bd 5c3e 985e e7be db16 c8bf fdca 08bf
000002b0: 49ba 5d3f 5e51 9f3e c89b d3bd 06de d43f
000002c0: 0127 ad3e 9cfe a83f f3c0 943e fed4 e2be
000002d0: 1b1f 0ebe e9b1 a73d ddc0 933f 938d 01bf
000002e0: 46d4 81bf c7ca 09bf a426 a23f 5945 a13d
000002f0: a726 02c0 e8d0 8d3f 3232 2abf 50b1 c3bf
00000300: 698a 0bbf 12de 3f3f f3f9 863e 07a0 443f
00000310: 7e05 14bf 844d 0c3d 1b8a 56bc 461d 9f3f
00000320: 9a8e 6abe a8cd 763f 4f08 83bd a7c6 d53e
00000330: 6f0a fc3f ac19 d2bf c6dd 803f 4be9 d03d
00000340: f3ad a23f 6012 b9bf 928d 91bf 9356 0e3f
00000350: f588 62bf e2a4 00be 6230 163f dc26 9e3d
00000360: dce9 51bf d118 29bf acb5 7c3f 67aa 5c3f
00000370: b640 92be e89a 03be 5ea2 b93e 9a3b 3e3f
00000380: 95df fd3e f04e 383f ad0e 663e 5521 2a3e
00000390: 04cd 39bf 003a 7d3e 326f 1abf 0841 3740
000003a0: 9335 cb3d aa99 ecbf 964a 4cbe 2c2f 95bf
000003b0: 461b 443f 38d7 b8bf fd4c 2d3f 7338 943f
000003c0: 004a efbf 417a 443f 6056 513d 0fef 3c3f
000003d0: 7d14 8d3f 0057 613f bc7b 843f 5b8f c6bc
000003e0: ba34 1f3f 88c7 7fbf b768 f43e 85be 14bf
000003f0: 10c5 553f b11a 8e3f a0f2 6abf 8df4 713f

blocks.0.sa.heads.0.tril f4 [32, 32]
1.0 0.0 0.0 0.0 0.0 0.0 0.0 0.0
0.0 0.0 0.0 0.0 0.0 0.0 0.0 0.0
0.0 0.0 0.0 0.0 0.0 0.0 0.0 0.0
0.0 0.0 0.0 0.0 0.0 0.0 0.0 0.0
1.0 1.0 0.0 0.0 0.0 0.0 0.0 0.0
0.0 0.0 0.0 0.0 0.0 0.0 0.0 0.0
0.0 0.0 0.0 0.0 0.0 0.0 0.0 0.0
0.0 0.0 0.0 0.0 0.0 0.0 0.0 0.0
1.0 1.0 1.0 0.0 0.0 0.0 0.0 0.0
0.0 0.0 0.0 0.0 0.0 0.0 0.0 0.0
0.0 0.0 0.0 0.0 0.0 0.0 0.0 0.0
0.0 0.0 0.0 0.0 0.0 0.0 0.0 0.0
1.0 1.0 1.0 1.0 0.0 0.0 0.0 0.0
0.0 0.0 0.0 0.0 0.0 0.0 0.0 0.0
0.0 0.0 0.0 0.0 0.0 0.0 0.0 0.0
0.0 0.0 0.0 0.0 0.0 0.0 0.0 0.0
1.0 1.0 1.0 1.0 1.0 0.0 0.0 0.0
0.0 0.0 0.0 0.0 0.0 0.0 0.0 0.0
0.0 0.0 0.0 0.0 0.0 0.0 0.0 0.0
0.0 0.0 0.0 0.0 0.0 0.0 0.0 0.0
1.0 1.0 1.0 1.0 1.0 1.0 0.0 0.0
0.0 0.0 0.0 0.0 0.0 0.0 0.0 0.0
0.0 0.0 0.0 0.0 0.0 0.0 0.0 0.0
0.0 0.0 0.0 0.0 0.0 0.0 0.0 0.0
1.0 1.0 1.0 1.0 1.0 1.0 1.0 0.0
0.0 0.0 0.0 0.0 0.0 0.0 0.0 0.0
0.0 0.0 0.0 0.0 0.0 0.0 0.0 0.0
0.0 0.0 0.0 0.0 0.0 0.0 0.0 0.0
1.0 1.0 1.0 1.0 1.0 1.0 1.0 1.0
0.0 0.0 0.0 0.0 0.0 0.0 0.0 0.0
0.0 0.0 0.0 0.0 0.0 0.0 0.0 0.0
0.0 0.0 0.0 0.0 0.0 0.0 0.0 0.0
00000000: 0000 803f 0000 0000 0000 0000 0000 0000
00000010: 0000 0000 0000 0000 0000 0000 0000 0000
00000020: 0000 0000 0000 0000 0000 0000 0000 0000
00000030: 0000 0000 0000 0000 0000 0000 0000 0000
00000040: 0000 0000 0000 0000 0000 0000 0000 0000
00000050: 0000 0000 0000 0000 0000 0000 0000 0000
00000060: 0000 0000 0000 0000 0000 0000 0000 0000
00000070: 0000 0000 0000 0000 0000 0000 0000 0000
00000080: 0000 803f 0000 803f 0000 0000 0000 0000
00000090: 0000 0000 0000 0000 0000 0000 0000 0000
000000a0: 0000 0000 0000 0000 0000 0000 0000 0000
000000b0: 0000 0000 0000 0000 0000 0000 0000 0000
000000c0: 0000 0000 0000 0000 0000 0000 0000 0000
000000d0: 0000 0000 0000 0000 0000 0000 0000 0000
000000e0: 0000 0000 0000 0000 0000 0000 0000 0000
000000f0: 0000 0000 0000 0000 0000 0000 0000 0000
00000100: 0000 803f 0000 803f 0000 803f 0000 0000
00000110: 0000 0000 0000 0000 0000 0000 0000 0000
00000120: 0000 0000 0000 0000 0000 0000 0000 0000
00000130: 0000 0000 0000 0000 0000 0000 0000 0000
00000140: 0000 0000 0000 0000 0000 0000 0000 0000
00000150: 0000 0000 0000 0000 0000 0000 0000 0000
00000160: 0000 0000 0000 0000 0000 0000 0000 0000
00000170: 0000 0000 0000 0000 0000 0000 0000 0000
00000180: 0000 803f 0000 803f 0000 803f 0000 803f
00000190: 0000 0000 0000 0000 0000 0000 0000 0000
000001a0: 0000 0000 0000 0000 0000 0000 0000 0000
000001b0: 0000 0000 0000 0000 0000 0000 0000 0000
000001c0: 0000 0000 0000 0000 0000 0000 0000 0000
000001d0: 0000 0000 0000 0000 0000 0000 0000 0000
000001e0: 0000 0000 0000 0000 0000 0000 0000 0000
000001f0: 0000 0000 0000 0000 0000 0000 0000 0000
00000200: 0000 803f 0000 803f 0000 803f 0000 803f
00000210: 0000 803f 0000 0000 0000 0000 0000 0000
00000220: 0000 0000 0000 0000 0000 0000 0000 0000
00000230: 0000 0000 0000 0000 0000 0000 0000 0000
00000240: 0000 0000 0000 0000 0000 0000 0000 0000
00000250: 0000 0000 0000 0000 0000 0000 0000 0000
00000260: 0000 0000 0000 0000 0000 0000 0000 0000
00000270: 0000 0000 0000 0000 0000 0000 0000 0000
00000280: 0000 803f 0000 803f 0000 803f 0000 803f
00000290: 0000 803f 0000 803f 0000 0000 0000 0000
000002a0: 0000 0000 0000 0000 0000 0000 0000 0000
000002b0: 0000 0000 0000 0000 0000 0000 0000 0000
000002c0: 0000 0000 0000 0000 0000 0000 0000 0000
000002d0: 0000 0000 0000 0000 0000 0000 0000 0000
000002e0: 0000 0000 0000 0000 0000 0000 0000 0000
000002f0: 0000 0000 0000 0000 0000 0000 0000 0000
00000300: 0000 803f 0000 803f 0000 803f 0000 803f
00000310: 0000 803f 0000 803f 0000 803f 0000 0000
00000320: 0000 0000 0000 0000 0000 0000 0000 0000
00000330: 0000 0000 0000 0000 0000 0000 0000 0000
00000340: 0000 0000 0000 0000 0000 0000 0000 0000
00000350: 0000 0000 0000 0000 0000 0000 0000 0000
00000360: 0000 0000 0000 0000 0000 0000 0000 0000
00000370: 0000 0000 0000 0000 0000 0000 0000 0000
00000380: 0000 803f 0000 803f 0000 803f 0000 803f
00000390: 0000 803f 0000 803f 0000 803f 0000 803f
000003a0: 0000 0000 0000 0000 0000 0000 0000 0000
000003b0: 0000 0000 0000 0000 0000 0000 0000 0000
000003c0: 0000 0000 0000 0000 0000 0000 0000 0000
000003d0: 0000 0000 0000 0000 0000 0000 0000 0000
000003e0: 0000 0000 0000 0000 0000 0000 0000 0000
000003f0: 0000 0000 0000 0000 0000 0000 0000 0000

blocks.0.sa.heads.0.key.weight f4 [16, 64]
0.09367543 0.050355796 0.01780412 0.062374365 -0.1470618 -0.114017315 0.054701716 -0.05380656
-0.031798016 -0.1050366 -0.0055117616 0.10806775 -0.078167826 -0.15338252 -0.038795516 -0.10219726
0.036663704 0.06169931 0.09760191 0.0784279 0.12529881 -0.058607653 0.025822707 -0.008077934
0.09930668 -0.010576866 -0.07092933 0.040731028 0.15576531 0.10527112 0.07148931 -0.019215813
0.10039996 0.09587047 0.06566089 -0.0049953926 -0.03271168 0.03151499 0.090711586 0.05375539
-0.074128665 0.044976424 0.025247907 0.0595054 0.16000462 -0.048469994 0.023859715 -0.01619229
0.099885814 0.01030203 -0.06890245 -0.038856685 -0.13666925 0.08474323 -0.04691079 -0.07738412
-0.1156697 0.021989297 -0.13683979 0.022503763 -0.06889536 -0.06659012 -0.1210248 -0.12851244
-0.060097285 0.05817041 -0.09095697 0.020578755 0.07793024 0.04894874 0.10936696 -0.1222539
-0.120666176 0.09348298 -0.07594066 -0.06615595 -0.073891416 0.083349586 0.08745627 0.056320097
0.011670759 0.14835818 -0.09831962 -0.0073453905 -0.059071064 0.05766501 -0.114873484 -0.054172978
-0.038378596 -0.04339596 0.004824175 0.09830329 -0.11672031 -0.064045206 -0.09280879 0.031638
0.10921847 -0.053169694 0.0753421 -0.05069416 0.12272634 0.061767627 0.04315583 0.023846667
0.0125120375 0.06884851 0.113495156 0.002135133 0.08472381 -0.105757914 -0.038473494 0.07763672
0.09599702 0.068024226 0.119442165 -0.037828073 -0.12900814 -0.0153782135 0.09430008 -0.069420435
0.025475627 0.12587334 0.10226908 0.051481444 0.08900176 -0.10398298 0.02186374 -0.015585144
-0.09468366 0.0078222 0.0035471946 -0.092645146 0.080090255 -0.021711942 -0.11622919 -0.060462967
-0.042669345 -0.1076969 0.05147015 0.043792617 -0.072852276 -0.063774735 0.10740139 -0.112244315
-0.075925514 -0.048343267 -0.10141022 -0.040099323 0.0124310665 -0.078601025 0.05696469 -0.0022777028
-0.10387996 0.06802922 -0.132243 -0.03608637 -0.095674716 0.008661518 -0.085366845 0.036289614
-0.06476642 -0.085210554 0.009901715 -0.07241803 0.106684186 -0.054054063 0.026435554 0.08943207
-0.0747026 -0.119385615 -0.082611755 0.051639605 0.05971528 0.10088315 -0.1078529 0.06368539
-0.11264622 0.05028723 -0.0073180804 -0.043695636 0.12950988 0.030872243 -0.079262644 -0.024989251
0.13513903 0.036759052 0.06735341 -0.07847879 -0.047152333 -0.012425776 0.12694584 -0.042260807
0.022327574 -0.08169311 0.09879779 0.06648635 -0.03145229 0.047162753 0.057499927 -0.13682918
0.008904397 -0.021132044 -0.0043617063 -0.030005613 -0.0010565785 0.05101032 -0.07783387 -0.03765035
-0.14306137 -0.03489592 0.018477239 -0.015021102 0.10721638 0.10141243 -0.054227717 0.13306075
0.054042086 -0.06069684 -0.05837779 0.024097105 0.010799925 -0.121915996 -0.047756568 0.054152552
-0.10103442 0.058258187 0.0443132 0.08191789 -0.10054185 0.11823443 0.00028114137 -0.10942594
-0.12705508 -0.055538934 0.035912313 0.061292034 0.076166615 -0.0779796 -0.057690307 -0.09912276
-0.007555644 -0.058600698 0.08236108 -0.017176019 -0.03650061 -0.043959066 0.023507122 -0.040244527
-0.048568614 0.05858084 0.004715645 0.04413482 -0.15191102 -0.100742884 -0.00679266 0.023434812
00000000: e7d8 bf3d e141 4e3d f2d9 913c 437c 7f3d
00000010: 5e97 16be e981 e9bd e80e 603d 4464 5cbd
00000020: a33e 02bd 6e1d d7bd 029c b4bb a052 dd3d
00000030: 7416 a0bd 4f10 1dbe 0ce8 1ebd cc4c d1bd
00000040: ae2c 163d 6ab8 7c3d 83e3 c73d cf9e a03d
00000050: 554e 003e 940e 70bd 248a d33c 5059 04bc
00000060: 4d61 cb3d 974a 2dbc 6643 91bd 94d5 263d
00000070: f180 1f3e 6398 d73d fd68 923d 7b6a 9dbc
00000080: 7f9e cd3d bd57 c43d 3779 863d 64b0 a3bb
00000090: affc 05bd dd15 013d ffc6 b93d 9d2e 5c3d
000000a0: c5d0 97bd 3339 383d b3d4 ce3c efbb 733d
000000b0: 40d8 233e 7988 46bd 7375 c33c b1a5 84bc
000000c0: ef90 cc3d d8c9 283c ba1c 8dbd 3028 1fbd
000000d0: 06f3 0bbe dc8d ad3d 8725 40bd 917b 9ebd
000000e0: 3ce4 ecbd e622 b43c bb1f 0cbe d059 b83c
000000f0: 0319 8dbd 6760 88bd dadb f7bd c498 03be
00000100: 9228 76bd 1944 6e3d a647 babd c794 a83c
00000110: e499 9f3d 797e 483d c9fb df3d 4160 fabd
00000120: d41f f7bd 0174 bf3d c786 9bbd c57c 87bd
00000130: 6254 97bd 30b3 aa3d 461c b33d e7af 663d
00000140: b636 3f3c 35eb 173e cc5b c9bd 9ab1 f0bb
00000150: 80f4 71bd 2532 6c3d ca42 ebbd 7ce4 5dbd
00000160: e032 1dbd f6bf 31bd 1d14 9e3b 3c53 c93d
00000170: 0f0b efbd 222a 83bd 8912 bebd d996 013d
00000180: efad df3d 77c8 59bd f54c 9a3d aea4 4fbd
00000190: f357 fb3d 0d00 7d3d 2bc4 303d 165a c33c
000001a0: 4aff 4c3c 7300 8d3d 2670 e83d 96ed 0b3b
000001b0: ad83 ad3d 9b97 d8bd 6296 1dbd 0000 9f3d
000001c0: 169a c43d 4950 8b3d 189e f43d 9cf1 1abd
000001d0: b61a 04be e7f4 7bbc 6620 c13d 4d2c 8ebd
000001e0: 43b2 d03c f1e4 003e 7472 d13d 35de 523d
000001f0: 8e46 b63d 07f5 d4bd 961b b33c d558 7fbc
00000200: 82e9 c1bd af28 003c 0d78 683b bdbc bdbd
00000210: 5c06 a43d 3edd b1bc 9209 eebd 04a8 77bd
00000220: 0dc6 2ebd 3190 dcbd 5dd2 523d e35f 333d
00000230: 9333 95bd 549c 82bd 43f5 db3d 59e0 e5bd
00000240: d67e 9bbd 9703 46bd 29b0 cfbd 303f 24bd
00000250: acab 4b3c 93f9 a0bd cf53 693d 8345 15bb
00000260: 04bf d4bd e752 8b3d b66a 07be 4dcf 13bd
00000270: 1bf1 c3bd 0ae9 0d3c d0d4 aebd 6ba4 143d
00000280: 42a4 84bd df82 aebd ce3a 223c e74f 94bd
00000290: 3d7d da3d cb67 5dbd 608f d83c 2928 b73d
000002a0: adfd 98bd 7280 f4bd 5a30 a9bd 0d84 533d
000002b0: 0298 743d d39b ce3d fbe1 dcbd 7c6d 823d
000002c0: 10b3 e6bd fcf9 4d3d 82cc efbb 32fa 32bd
000002d0: 3d9e 043e c9e7 fc3c 7454 a2bd 42b6 ccbc
000002e0: e361 0a3e a990 163d 96f0 893d 7db9 a0bd
000002f0: ce22 41bd 7b95 4bbc 17fe 013e ab19 2dbd
00000300: 51e8 b63c b84e a7bd 7f56 ca3d ff29 883d
00000310: 1ed4 00bd bb2d 413d 0b85 6b3d f31c 0cbe
00000320: bfe3 113c 1c1d adbc a5ec 8ebb 55ce f5bc
00000330: e47c 8aba 33f0 503d 5d67 9fbd 4137 1abd
00000340: ae7e 12be 06ef 0ebd 945d 973c 111b 76bc
00000350: 4394 db3d 52b1 cf3d e21d 5ebd 1441 083e
00000360: 3c5b 5d3d 409d 78bd 8d1d 6fbd 4b67 c53c
00000370: 2bf2 303c 18af f9bd 649c 43bd 11cf 5d3d
00000380: 22eb cebd 23a0 6e3d c281 353d 91c4 a73d
00000390: e3e8 cdbd e524 f23d 2866 9339 b51a e0bd
000003a0: ba1a 02be cb7c 63bd ca18 133d 5b0d 7b3d
000003b0: 3efd 9b3d c5b3 9fbd ac4c 6cbd e000 cbbd
000003c0: 5695 f7bb 4907 70bd edac a83d b9b4 8cbc
000003d0: aa81 15bd 6c0e 34bd 0292 c03c 72d7 24bd
000003e0: e2ef 46bd 76f2 6f3d b385 9a3b b7c6 343d
000003f0: 908e 1bbe 4952 cebd f694 debb 5dfa bf3c

blocks.0.sa.heads.0.query.weight f4 [16, 64]
0.0067304764 -0.06097158 -0.044154204 0.016113823 -0.06426886 -0.07803753 0.09734395 0.031049967
0.13652027 -0.08071756 -0.0080950875 0.054063942 -0.14392133 -0.12975138 -0.03955012 0.12420103
0.13298771 -0.020176968 -0.07627869 0.10230896 -0.04311937 -0.03851165 -0.0666166 0.038950525
0.07094005 -0.10776508 0.007187684 -0.04700646 0.14121619 0.07800278 0.059050523 0.076523684
0.047201168 -0.003944765 -0.062949106 -0.09371258 -0.015802464 0.008743968 0.1679809 -0.08296122
0.037510425 0.024745844 -0.043674707 0.1566031 0.04845088 0.08431712 0.04637015 0.010607896
-0.08466759 0.033497933 -0.19207945 -0.0488471 -0.13854235 0.009020812 0.05107184 0.025575066
0.06840946 0.10457754 -0.12620057 0.10935899 0.09320424 0.0815081 -0.0586155 -0.08813954
-0.14647412 0.03799354 0.09058716 -0.025112258 0.04496983 0.1115156 -0.083413094 0.124917276
0.02956347 0.04050349 0.055819783 0.04374385 -0.025336435 0.10197506 -0.059098724 0.1276725
-0.06039165 0.0861167 0.00021605616 0.10389551 0.021610571 -0.13152146 0.09490508 0.02676901
-0.0527115 0.12397173 -0.06662113 -0.036562495 0.031372905 0.0037296375 -0.041112408 -0.0032084133
-0.039140817 0.04485526 -0.118833594 0.05962443 0.005470802 -0.052654743 0.103746414 -0.088408254
0.039046258 0.059088048 0.008594847 0.09371938 -0.07421477 -0.16397317 -0.104474194 -0.020071995
-0.12905188 0.07585163 -0.10168801 -0.059738815 0.12320055 -0.044171814 -0.1095856 -0.03388399
-0.10318651 -0.09793308 -0.060898967 -0.010742617 -0.11713339 0.08866451 0.03815286 -0.08134745
-0.062849864 -0.14914611 -0.118850864 0.015219663 -0.040272716 0.05443229 -0.0391185 0.10009515
0.04804719 -0.015898159 -0.12278481 -0.031782396 -0.019945402 -0.023981407 0.018936947 0.092153706
0.03169374 0.01972934 0.08158517 0.06818971 -0.015494352 -0.03485416 0.10603972 0.022536162
-0.10652936 0.10107524 -0.041914478 -0.109165795 0.058605216 0.06786787 0.010307637 -0.07338945
0.09115504 0.024287622 0.11440975 0.047966793 0.013256048 -0.10036941 -0.09541554 0.07228995
0.08065843 -0.06007136 0.06298256 0.026519382 -0.028385716 -0.08779878 0.08857609 -0.020537816
-0.10764391 0.018189691 0.08815565 -0.024935434 -0.063636795 0.052286886 -0.061103426 0.17403433
0.07542993 -0.006329019 -0.07833619 -0.13788724 -0.05083209 -0.07316692 0.041614484 -0.06174808
0.01872027 0.029244239 -0.08982223 -0.0054302122 0.013586128 -0.012625468 -0.044720232 -0.12526049
0.0016914115 0.1268947 0.015615719 0.10484603 0.008678994 -0.008013906 -0.09890806 -0.08693996
-0.07766833 -0.018504364 -0.03317169 0.028788855 -0.034245547 0.015139599 0.08326681 -0.072093785
-0.10532525 -0.026090266 -0.06676962 0.11129165 0.08290506 -0.0889281 -0.06593056 0.0034717454
-0.090536624 -0.09992039 0.019620718 -0.047761086 -0.12637645 0.08263523 -0.046429947 -0.035424653
0.094690636 -0.010242286 0.10455066 0.030276783 0.020914169 -0.09161952 -0.13486475 0.05048788
0.083700016 0.11776401 -0.007146886 0.00335246 0.010010525 -0.011273724 0.027471423 0.047141057
-0.13076295 0.009116413 0.03458872 -0.06721575 -0.019302135 0.06351467 0.08344647 0.020681323
00000000: 548b dc3b 56bd 79bd 0adb 34bd 2301 843c
00000010: 649f 83bd 24d2 9fbd 445c c73d 805c fe3c
00000020: f8cb 0b3e 404f a5bd 42a1 04bc 2772 5d3d
00000030: 1d60 13be 8cdd 04be 4eff 21bd 1c5d fe3d
00000040: ee2d 083e 2b4a a5bc 0038 9cbd 5c87 d13d
00000050: f09d 30bd 64be 1dbd 496e 88bd 968a 1f3d
00000060: 0449 913d f0b3 dcbd aa86 eb3b d989 40bd
00000070: fa9a 103e ecbf 9f3d f6de 713d 73b8 9c3d
00000080: 0356 413d 1643 81bb 76eb 80bd 62ec bfbd
00000090: 2b74 81bc dc42 0f3c 2f03 2c3e 92e7 a9bd
000000a0: 88a4 193d ccb7 ca3c 40e4 32bd 905c 203e
000000b0: 6e74 463d 74ae ac3d a0ee 3d3d becc 2d3c
000000c0: 3466 adbd 2135 093d 7ab0 44be e613 48bd
000000d0: 0cde 0dbe 07cc 133c b530 513d cd82 d13c
000000e0: 421a 8c3d c02c d63d b93a 01be 9bf7 df3d
000000f0: dde1 be3d b8ed a63d ce16 70bd 8182 b4bd
00000100: 50fd 15be 1d9f 1b3d c385 b93d 39b8 cdbc
00000110: 4932 383d 4a62 e43d 7cd4 aabd a1d4 ff3d
00000120: 172f f23c fde6 253d 49a3 643d c02c 333d
00000130: 5b8e cfbc 4dd8 d03d 8111 72bd 94bc 023e
00000140: 3c5d 77bd f45d b03d 228d 6239 2bc7 d43d
00000150: a708 b13c 90ad 06be 985d c23d af4a db3c
00000160: 04e8 57bd e4e4 fd3d a970 88bd 8ec2 15bd
00000170: e080 003d ef6c 743b 7c65 28bd 3e44 52bb
00000180: 1f52 20bd 26ba 373d 075f f3bd bf38 743d
00000190: 6a44 b33b 80ac 57bd 0079 d43d 630f b5bd
000001a0: f8ee 1f3d 4f06 723d 67d1 0c3c f2ef bf3d
000001b0: eafd 97bd 95e8 27be 91f6 d5bd 066e a4bc
000001c0: 2d26 04be 1958 9b3d ce41 d0bd b0b0 74bd
000001d0: 9250 fc3d 81ed 34bd 6a6e e0bd f0c9 0abd
000001e0: 7353 d3bd 2391 c8bd 3271 79bd cd01 30bc
000001f0: a1e3 efbd bd95 b53d 2c46 1c3d 7e99 a6bd
00000200: 6eb7 80bd c2b9 18be 1568 f3bd e55b 793c
00000210: 01f5 24bd 65f4 5e3d b83a 20bd b0fe cc3d
00000220: 21cd 443d db3c 82bc 9a76 fbbd 422e 02bd
00000230: 8a64 a3bc a874 c4bc a821 9b3c 15bb bc3d
00000240: 4cd1 013d 6d9f a13c 2016 a73d 0ca7 8b3d
00000250: 06dc 7dbc 3cc3 0ebd 5a2b d93d c29d b83c
00000260: 112c dabd 8900 cf3d 84ae 2bbd 5192 dfbd
00000270: 060c 703d 4ffe 8a3d 5de1 283c 354d 96bd
00000280: 7eaf ba3d d6f6 c63c a94f ea3d d478 443d
00000290: e52f 593c 7a8e cdbd 3969 c3bd c10c 943d
000002a0: 3f30 a53d 630d 76bd 00fd 803d 2d3f d93c
000002b0: 2989 e8bc d9cf b3bd 6267 b53d ec3e a8bc
000002c0: 6974 dcbd 8c02 953c f38a b43d 6545 ccbc
000002d0: 0254 82bd c62a 563d 9647 7abd 0e36 323e
000002e0: 027b 9a3d a963 cfbb b96e a0bd 5032 0dbe
000002f0: 4f35 50bd 8ad8 95bd f373 2a3d 8eeb 7cbd
00000300: 405b 993c 9d91 ef3c b8f4 b7bd ecef b1bb
00000310: 5a98 5e3c 0ddb 4ebc 902c 37bd 4944 00be
00000320: 5ab2 dd3a aff0 013e 13d9 7f3c 84b9 d63d
00000330: 5732 0e3c c24c 03bc 4f90 cabd 940d b2bd
00000340: 9310 9fbd 7796 97bc 0adf 07bd 9bd6 eb3c
00000350: 0f45 0cbd 150c 783c ca87 aa3d e8a5 93bd
00000360: c4b4 d7bd 41bb d5bc 83be 88bd e0ec e33d
00000370: 21ca a93d f01f b6bd 9a06 87bd 3986 633b
00000380: 446b b9bd 10a3 ccbd a1bb a03c 21a1 43bd
00000390: d468 01be a93c a93d 542d 3ebd 7119 11bd
000003a0: 2aed c13d 43cf 27bc a81e d63d 0407 f83c
000003b0: 3154 ab3c 04a3 bbbd fc19 0abe 61cc 4e3d
000003c0: ea6a ab3d 422e f13d 6d30 eabb f2b4 5b3b
000003d0: 2f03 243c 6db5 38bc c00b e13c fb16 413d
000003e0: b9e6 05be 025d 153c e7ac 0d3d 69a8 89bd
000003f0: 831f 9ebc fb13 823d fce5 aa3d e16b a93c

blocks.0.sa.heads.0.value.weight f4 [16, 64]
-0.008069383 -0.045398224 -0.0339351 -0.070861906 0.1079455 0.070653886 0.024800079 -0.12075571
-0.018497586 -0.045721438 0.090853274 -0.052733928 0.11582429 -0.05999738 0.052866288 -0.13196822
-0.00900455 -0.073230125 -0.11226064 0.028090628 -0.08056518 0.019412102 -0.06388204 0.11107612
0.010854532 0.08860264 -0.1295391 0.078398675 0.00053739664 0.037316874 -0.027679777 -0.11013854
-0.023782857 0.08377749 0.011972361 -0.114875495 0.04505367 -0.09651491 0.12467512 -0.033591155
-0.08909789 0.040343598 -0.024346935 -0.044692453 -0.077078246 0.06464152 -0.092808366 0.04429534
-0.08981732 -0.017967097 -0.012731578 0.027584396 0.07168993 0.031619493 -0.047341887 -0.07098085
0.00056104636 0.13993879 -0.020535866 0.006718811 0.0028032141 0.08338632 -0.06386168 0.10501721
0.05106884 0.0913544 0.09837777 0.0884985 -0.003653187 0.1141884 0.08500644 0.09107122
0.12736928 0.08427279 0.10108065 -0.09219048 -0.025838323 0.04755932 -0.0873592 0.02797762
0.09199567 -0.05777716 -0.061351035 -0.08557648 0.08883733 0.011177769 0.08779311 -0.06497438
0.0015285364 0.09500147 -0.055993825 0.09010832 -0.139301 -0.11660771 0.1004005 0.048185363
-0.021273872 -0.0068953014 0.098487146 0.052651033 0.030019399 0.103458665 -0.039474685 -0.11269689
0.09271762 0.08255167 -0.07546181 0.05311022 0.095190145 -0.021125007 0.036796927 -0.059529487
0.09992696 -0.023290593 -0.034098174 -0.073685564 0.041249976 0.11089509 0.02003996 0.07017047
0.036069643 0.13208486 0.06441775 0.15435253 0.0486448 0.10614965 -0.05630477 0.114339
-0.09054153 0.07250359 0.04435809 -0.091984324 0.004853912 0.07430503 -0.08781201 0.089234106
-0.0021234464 -0.069180764 -0.12053915 -0.10190581 -0.04243961 -0.017653726 -0.110167794 0.089529864
0.08624387 0.05754748 -0.107173376 -0.043046504 0.01460253 -0.065484874 0.09635753 0.009901151
0.046951152 -0.026003374 0.062229842 0.093195684 -0.013711458 0.053253386 -0.11159853 0.053110432
0.12699443 0.10783835 0.102660865 0.13358778 -0.0686313 -0.043816388 0.10016865 0.12599087
0.04267357 0.01558831 0.054399587 -0.025254138 -0.067214176 -0.00939443 -0.035466306 0.0844624
-0.017362623 0.031425465 -0.031396005 0.031801198 0.030678136 -0.11027269 0.040829364 0.034980655
0.101710476 -0.081579745 0.0010432898 -0.08140015 0.13914366 -0.11834511 0.09336103 -0.109564826
0.07258524 0.08346245 0.06784198 0.027301583 -0.08199106 0.01786135 -0.04510604 -0.022331132
0.041495625 -0.085034184 -0.105634816 -0.06342412 -0.034285992 -0.0015002053 -0.03755448 0.004151642
-0.09460185 -0.08607425 0.056449406 0.08950237 -0.14181831 -0.09991658 -0.1305901 -0.06643927
0.048217237 -0.095864154 0.056342978 0.059482563 -0.046589274 0.11771301 0.073885046 -0.095487036
0.10165037 -0.008951281 0.068077974 0.055379227 0.09001873 -0.088821895 0.10284232 -0.089134894
-0.09038621 -0.014486743 0.10133168 -0.0009235448 -0.09494663 -0.11003794 -0.03512249 -0.086326115
0.05392975 -0.04666401 0.07241657 -0.061585166 -0.031539094 -0.05124234 0.048015807 -0.11780207
-0.03813175 0.0030063542 0.013372713 -0.065353006 -0.060425423 -0.11897689 -0.062348135 -0.12450734
00000000: 7235 04bc 7df3 39bd 88ff 0abd 0c20 91bd
00000010: 8812 dd3d fcb2 903d 8929 cb3c c54e f7bd
00000020: 4088 97bc 6746 3bbd 4811 ba3d 88ff 57bd
00000030: 4935 ed3d d0bf 75bd 528a 583d ad22 07be
00000040: d287 13bc adf9 95bd e8e8 e5bd 511e e63c
00000050: 5bff a4bd 2106 9f3c 96d4 82bd e07b e33d
00000060: 35d7 313c 4d75 b53d e6a5 04be 7c8f a03d
00000070: 14e0 0c3a 94d9 183d b3c0 e2bc 5190 e1bd
00000080: 44d4 c2bc 8893 ab3d b927 443c d843 ebbd
00000090: 328a 383d 9ca9 c5bd ab55 ff3d e196 09bd
000000a0: f478 b6bd 543f 253d 3973 c7bc 6f0f 37bd
000000b0: 33db 9dbd c662 843d 5012 bebd 086f 353d
000000c0: 25f2 b7bd bc2f 93bc 1c98 50bc acf8 e13c
000000d0: 2cd2 923d 7183 013d 91e9 41bd 685e 91bd
000000e0: 2f13 133a 1d4c 0f3e d53a a8bc 7929 dc3b
000000f0: 21b6 373b 72c6 aa3d eac9 82bd 4313 d73d
00000100: 8f2d 513d 0418 bb3d 497a c93d b43e b53d
00000110: 4f6a 6fbb 9cdb e93d db17 ae3d 8c83 ba3d
00000120: 186d 023e 3697 ac3d 5f03 cf3d 5dce bcbd
00000130: e4aa d3bc 90cd 423d 61e9 b2bd 5231 e53c
00000140: 3a68 bc3d bea7 6cbd 394b 7bbd b942 afbd
00000150: 59f0 b53d f622 373c e0cc b33d 4a11 85bd
00000160: 2c59 c83a 2190 c23d c859 65bd b68a b83d
00000170: eca4 0ebe 06d0 eebd c79e cd3d 045e 453d
00000180: 8b46 aebc fbf1 e1bb a1b3 c93d 9ca8 573d
00000190: 3eeb f53c 23e2 d33d 35b0 21bd a1cd e6bd
000001a0: bce2 bd3d da10 a93d b98b 9abd 1a8a 593d
000001b0: 0df3 c23d 5a0e adbc 60b8 163d 31d5 73bd
000001c0: 82a6 cc3d eacb bebc 87aa 0bbd 75e8 96bd
000001d0: bcf5 283d f71c e33d d82a a43c 89b5 8f3d
000001e0: c3bd 133d 4141 073e 74ed 833d 970e 1e3e
000001f0: c53f 473d fd64 d93d d59f 66bd 912a ea3d
00000200: d66d b9bd c37c 943d d4b0 353d 4762 bcbd
00000210: 910d 9f3b 3c2d 983d c8d6 b3bd 5fc0 b63d
00000220: 8529 0bbb a5ae 8dbd 3bdd f6bd feb3 d0bd
00000230: 28d5 2dbd 8c9e 90bc a79f e1bd 6f5b b73d
00000240: a0a0 b03d e8b6 6b3d b77d dbbd 8851 30bd
00000250: 733f 6f3c ef1c 86bd 1957 c53d 7038 223c
00000260: da4f 403d 0705 d5bc b8e4 7e3d 61dd be3d
00000270: 06a6 60bc 3920 5a3d c58d e4bd 538a 593d
00000280: d40a 023e 5ada dc3d dc3f d23d 3ccb 083e
00000290: 918e 8cbd d078 33bd 3925 cd3d c003 013e
000002a0: 7bca 2e3d 1c66 7f3c 1ad2 5e3d c4e1 cebc
000002b0: 96a7 89bd 18eb 19bc 1e45 11bd 9ffa ac3d
000002c0: 0f3c 8ebc fdb7 003d 1999 00bd f941 023d
000002d0: b750 fb3c a6d6 e1bd b13c 273d e047 0f3d
000002e0: 954d d03d 4813 a7bd ffbe 883a 1fb5 a6bd
000002f0: ad7b 0e3e ec5e f2bd 1134 bf3d 8663 e0bd
00000300: 92a7 943d 5cee aa3d bcf0 8a3d 92a7 df3c
00000310: eeea a7bd f751 923c 1cc1 38bd c7ef b6bc
00000320: 51f7 293d 6726 aebd 1157 d8bd 81e4 81bd
00000330: 786f 0cbd 89a2 c4ba bad2 19bd 7f0a 883b
00000340: 9dbe c1bd b247 b0bd 7e37 673d 054d b73d
00000350: d238 11be 10a1 ccbd 69b9 05be 5011 88bd
00000360: 707f 453d 6d54 c4bd e5c7 663d fda3 733d
00000370: 65d4 3ebd 8513 f13d 0b51 973d b58e c3bd
00000380: 122e d03d 65a8 12bc 776c 8b3d 54d5 623d
00000390: bd5b b83d 41e8 b5bd ff9e d23d 5b8c b6bd
000003a0: 681c b9bd ce59 6dbc fc86 cf3d 0b1a 72ba
000003b0: 6173 c2bd 925b e1bd 9adc 0fbd bfcb b0bd
000003c0: 71e5 5c3d c322 3fbd 234f 943d ba40 7cbd
000003d0: 232f 01bd 7de3 51bd 39ac 443d 3642 f1bd
000003e0: 0a30 1cbd 4106 453b 3919 5b3c ccd7 85bd
000003f0: a680 77bd 28aa f3bd c260 7fbd b4fd febd

blocks.0.sa.heads.1.tril f4 [32, 32]
1.0 0.0 0.0 0.0 0.0 0.0 0.0 0.0
0.0 0.0 0.0 0.0 0.0 0.0 0.0 0.0
0.0 0.0 0.0 0.0 0.0 0.0 0.0 0.0
0.0 0.0 0.0 0.0 0.0 0.0 0.0 0.0
1.0 1.0 0.0 0.0 0.0 0.0 0.0 0.0
0.0 0.0 0.0 0.0 0.0 0.0 0.0 0.0
0.0 0.0 0.0 0.0 0.0 0.0 0.0 0.0
0.0 0.0 0.0 0.0 0.0 0.0 0.0 0.0
1.0 1.0 1.0 0.0 0.0 0.0 0.0 0.0
0.0 0.0 0.0 0.0 0.0 0.0 0.0 0.0
0.0 0.0 0.0 0.0 0.0 0.0 0.0 0.0
0.0 0.0 0.0 0.0 0.0 0.0 0.0 0.0
1.0 1.0 1.0 1.0 0.0 0.0 0.0 0.0
0.0 0.0 0.0 0.0 0.0 0.0 0.0 0.0
0.0 0.0 0.0 0.0 0.0 0.0 0.0 0.0
0.0 0.0 0.0 0.0 0.0 0.0 0.0 0.0
1.0 1.0 1.0 1.0 1.0 0.0 0.0 0.0
0.0 0.0 0.0 0.0 0.0 0.0 0.0 0.0
0.0 0.0 0.0 0.0 0.0 0.0 0.0 0.0
0.0 0.0 0.0 0.0 0.0 0.0 0.0 0.0
1.0 1.0 1.0 1.0 1.0 1.0 0.0 0.0
0.0 0.0 0.0 0.0 0.0 0.0 0.0 0.0
0.0 0.0 0.0 0.0 0.0 0.0 0.0 0.0
0.0 0.0 0.0 0.0 0.0 0.0 0.0 0.0
1.0 1.0 1.0 1.0 1.0 1.0 1.0 0.0
0.0 0.0 0.0 0.0 0.0 0.0 0.0 0.0
0.0 0.0 0.0 0.0 0.0 0.0 0.0 0.0
0.0 0.0 0.0 0.0 0.0 0.0 0.0 0.0
1.0 1.0 1.0 1.0 1.0 1.0 1.0 1.0
0.0 0.0 0.0 0.0 0.0 0.0 0.0 0.0
0.0 0.0 0.0 0.0 0.0 0.0 0.0 0.0
0.0 0.0 0.0 0.0 0.0 0.0 0.0 0.0
00000000: 0000 803f 0000 0000 0000 0000 0000 0000
00000010: 0000 0000 0000 0000 0000 0000 0000 0000
00000020: 0000 0000 0000 0000 0000 0000 0000 0000
00000030: 0000 0000 0000 0000 0000 0000 0000 0000
00000040: 0000 0000 0000 0000 0000 0000 0000 0000
00000050: 0000 0000 0000 0000 0000 0000 0000 0000
00000060: 0000 0000 0000 0000 0000 0000 0000 0000
00000070: 0000 0000 0000 0000 0000 0000 0000 0000
00000080: 0000 803f 0000 803f 0000 0000 0000 0000
00000090: 0000 0000 0000 0000 0000 0000 0000 0000
000000a0: 0000 0000 0000 0000 0000 0000 0000 0000
000000b0: 0000 0000 0000 0000 0000 0000 0000 0000
000000c0: 0000 0000 0000 0000 0000 0000 0000 0000
000000d0: 0000 0000 0000 0000 0000 0000 0000 0000
000000e0: 0000 0000 0000 0000 0000 0000 0000 0000
000000f0: 0000 0000 0000 0000 0000 0000 0000 0000
00000100: 0000 803f 0000 803f 0000 803f 0000 0000
00000110: 0000 0000 0000 0000 0000 0000 0000 0000
00000120: 0000 0000 0000 0000 0000 0000 0000 0000
00000130: 0000 0000 0000 0000 0000 0000 0000 0000
00000140: 0000 0000 0000 0000 0000 0000 0000 0000
00000150: 0000 0000 0000 0000 0000 0000 0000 0000
00000160: 0000 0000 0000 0000 0000 0000 0000 0000
00000170: 0000 0000 0000 0000 0000 0000 0000 0000
00000180: 0000 803f 0000 803f 0000 803f 0000 803f
00000190: 0000 0000 0000 0000 0000 0000 0000 0000
000001a0: 0000 0000 0000 0000 0000 0000 0000 0000
000001b0: 0000 0000 0000 0000 0000 0000 0000 0000
000001c0: 0000 0000 0000 0000 0000 0000 0000 0000
000001d0: 0000 0000 0000 0000 0000 0000 0000 0000
000001e0: 0000 0000 0000 0000 0000 0000 0000 0000
000001f0: 0000 0000 0000 0000 0000 0000 0000 0000
00000200: 0000 803f 0000 803f 0000 803f 0000 803f
00000210: 0000 803f 0000 0000 0000 0000 0000 0000
00000220: 0000 0000 0000 0000 0000 0000 0000 0000
00000230: 0000 0000 0000 0000 0000 0000 0000 0000
00000240: 0000 0000 0000 0000 0000 0000 0000 0000
00000250: 0000 0000 0000 0000 0000 0000 0000 0000
00000260: 0000 0000 0000 0000 0000 0000 0000 0000
00000270: 0000 0000 0000 0000 0000 0000 0000 0000
00000280: 0000 803f 0000 803f 0000 803f 0000 803f
00000290: 0000 803f 0000 803f 0000 0000 0000 0000
000002a0: 0000 0000 0000 0000 0000 0000 0000 0000
000002b0: 0000 0000 0000 0000 0000 0000 0000 0000
000002c0: 0000 0000 0000 0000 0000 0000 0000 0000
000002d0: 0000 0000 0000 0000 0000 0000 0000 0000
000002e0: 0000 0000 0000 0000 0000 0000 0000 0000
000002f0: 0000 0000 0000 0000 0000 0000 0000 0000
00000300: 0000 803f 0000 803f 0000 803f 0000 803f
00000310: 0000 803f 0000 803f 0000 803f 0000 0000
00000320: 0000 0000 0000 0000 0000 0000 0000 0000
00000330: 0000 0000 0000 0000 0000 0000 0000 0000
00000340: 0000 0000 0000 0000 0000 0000 0000 0000
00000350: 0000 0000 0000 0000 0000 0000 0000 0000
00000360: 0000 0000 0000 0000 0000 0000 0000 0000
00000370: 0000 0000 0000 0000 0000 0000 0000 0000
00000380: 0000 803f 0000 803f 0000 803f 0000 803f
00000390: 0000 803f 0000 803f 0000 803f 0000 803f
000003a0: 0000 0000 0000 0000 0000 0000 0000 0000
000003b0: 0000 0000 0000 0000 0000 0000 0000 0000
000003c0: 0000 0000 0000 0000 0000 0000 0000 0000
000003d0: 0000 0000 0000 0000 0000 0000 0000 0000
000003e0: 0000 0000 0000 0000 0000 0000 0000 0000
000003f0: 0000 0000 0000 0000 0000 0000 0000 0000

blocks.0.sa.heads.1.key.weight f4 [16, 64]
0.07504694 -0.085296236 -0.108353265 -0.049386613 0.03596626 -0.07680939 -0.030882133 0.07998245
0.14113499 -0.0898055 0.05622101 -0.06628767 -0.10257651 0.05366893 -0.06986116 -0.05436698
0.036650453 -0.08014836 0.02859683 0.05089156 -0.061976057 0.0430888 0.061581064 -0.08770793
0.03667398 0.042952467 -0.036499754 -0.047403157 -0.06325761 0.067910336 -0.08921879 0.0799264
0.007225443 0.061351072 -0.011520475 0.0412398 -0.12546973 0.10245929 0.14988151 -0.06659118
0.046514712 -0.06541233 0.024939958 0.0593937 0.14989272 0.0709472 -0.01107531 -0.05479969
0.098875634 0.12870781 0.06728437 -0.05896168 0.054777335 0.028802698 0.11980904 -0.047268648
-0.053399988 0.14368385 0.14290375 0.12723862 0.011895139 -0.069027305 0.05583315 -0.0348652
0.037546054 0.105314046 -0.15545104 -0.034320217 0.075356066 0.10996673 0.11918378 -0.05081429
-0.06592103 -0.0693386 0.117452204 -0.027932882 0.13293055 -0.10023577 0.022394741 -0.08111252
0.04787558 -0.034086503 0.06411809 0.16435269 0.021700224 0.07954253 -0.06298465 0.031880368
-0.061629664 -0.07665875 0.036278658 -0.06976817 0.0023362383 0.10243351 -0.07352345 0.057422347
0.056389894 0.1486469 0.123635724 -0.07177415 -0.0026010626 0.10802891 -0.05721224 0.08913674
0.0084548965 0.029784571 0.086280085 -0.14028324 -0.097348824 -0.10308201 0.116910234 0.08181657
-0.005305156 0.011248253 0.050021473 -0.12584385 0.05794903 0.08444853 -0.12582 -0.096987054
-0.0704819 0.026426809 -0.016800333 0.07505618 -0.12089661 0.118829705 -0.11049686 0.07184615
0.037467636 0.037408963 -0.13425048 0.010540702 -0.005338672 -0.055154756 0.07791436 -0.040826645
0.103321776 -0.11523673 -0.07066923 0.06741434 0.06651869 -0.05261294 -0.049366545 -0.1127001
-0.005951319 0.111726426 0.04028482 -0.09382774 0.097965345 -0.07584493 0.03257148 -0.027964804
-0.111499324 0.009842746 0.0259764 0.01578633 0.07837837 -0.11183011 0.065851256 -0.027453365
0.055169363 -0.039212722 0.15125617 -0.036095608 0.028004112 0.002834659 -0.09111762 0.06918775
0.059809204 0.12361681 0.08604958 0.022889597 0.13003331 0.04490115 -0.120663874 0.06885747
-0.10929426 -0.105610825 0.037434183 -0.06471321 0.08362345 -0.042088844 -0.07131829 -0.048326664
-0.06420721 0.0430197 0.0538313 -0.011981115 0.052127097 -0.09312332 0.04811331 0.0026755643
0.03814213 -0.0394509 0.087769344 -0.046496958 0.057489697 -0.0062201247 0.1053156 0.03491621
0.07395193 -0.032141063 0.08566003 0.124339886 0.006404567 -0.00949941 -0.06486962 -0.057349153
-0.08073274 -0.06648274 0.12236638 -0.15771744 -0.055009067 0.13095164 0.02660244 0.1420538
0.05293203 0.13499734 -0.0053172684 0.014971791 -0.06746341 0.0756166 0.060684383 -0.06548826
0.018388016 -0.09391824 -0.116222404 0.11395662 0.03837927 0.020272832 0.00045568217 -0.09225987
-0.04713127 -0.054847054 -0.07701331 -0.0057069934 0.053929623 0.12119406 -0.0021445798 -0.060209885
-0.14966926 -0.11292526 -0.049230427 0.06018791 -0.15643342 0.028033657 0.00031148156 0.006180419
-0.124989256 -0.09523316 0.045814753 0.066390485 0.07876547 -0.18981703 0.008726832 0.026586503
00000000: 36b2 993d cbaf aebd 51e8 ddbd 9e49 4abd
00000010: 5b51 133d 3e4e 9dbd 87fc fcbc d7cd a33d
00000020: b185 103e f2eb b7bd 0048 663d d4c1 87bd
00000030: a213 d2bd f4d3 5b3d 5e13 8fbd e9af 5ebd
00000040: c91e 163d d324 a4bd e643 ea3c ab73 503d
00000050: 9bda 7dbd e27d 303d 6d3c 7c3d 37a0 b3bd
00000060: 7537 163d edee 2f3d c480 15bd d029 42bd
00000070: 358d 81bd 9314 8b3d 57b8 b6bd 74b0 a33d
00000080: 69c3 ec3b 434b 7b3d 60c0 3cbc 11eb 283d
00000090: 237b 00be 2dd6 d13d 8a7a 193e f560 88bd
000000a0: 3686 3e3d e6f6 85bd e24e cc3c cf46 733d
000000b0: 7a7d 193e c44c 913d 3875 35bc a475 60bd
000000c0: 4f7f ca3d fbcb 033e 63cc 893d cd81 71bd
000000d0: 335e 603d a3f3 eb3c 715e f53d c59c 41bd
000000e0: f2b9 5abd dc21 133e 5c55 123e d74a 023e
000000f0: d4e3 423c 305e 8dbd 4db1 643d d0ce 0ebd
00000100: e4c9 193d e4ae d73d 8f2e 1fbe 5b93 0cbd
00000110: 4854 9a3d 3d36 e13d a016 f43d a522 50bd
00000120: 9b01 87bd 6501 8ebd c88a f03d 80d3 e4bc
00000130: f21e 083e 6948 cdbd 2d75 b73c 521e a6bd
00000140: 2f19 443d 4a9e 0bbd 5850 833d 124c 283e
00000150: abc4 b13c 32e7 a23d 19fe 80bd fd94 023d
00000160: 636f 7cbd 43ff 9cbd ee98 143d 9de2 8ebd
00000170: 931b 193b a9c8 d13d 7693 96bd b233 6b3d
00000180: 17f9 663d e536 183e ba34 fd3d 53fe 92bd
00000190: 9776 2abb 433e dd3d 6257 6abd 538d b63d
000001a0: 6886 0a3c c6fe f33c 9db3 b03d 69a6 0fbe
000001b0: d25e c7bd a91c d3bd a26e ef3d 728f a73d
000001c0: e0d6 adbb 984a 383c 51e3 4c3d 36dd 00be
000001d0: f65b 6d3d 5af3 ac3d f5d6 00be 26a1 c6bd
000001e0: d058 90bd 097d d83c daa0 89bc 0eb7 993d
000001f0: a498 f7bd fd5c f33d 2e4c e2bd 1324 933d
00000200: aa77 193d 243a 193d f578 09be e9b2 2c3c
00000210: 07f0 aebb f4e9 61bd 9091 9f3d d739 27bd
00000220: 5e9a d33d 3c01 ecbd 07bb 90bd 8810 8a3d
00000230: f33a 883d ab80 57bd 9334 4abd 4fcf e6bd
00000240: 4803 c3bb d3d0 e43d b201 253d c228 c0bd
00000250: 0ea2 c83d 9654 9bbd ac69 053d 7216 e5bc
00000260: c259 e4bd 7843 213c 76cc d43c 5552 813c
00000270: d784 a03d 2f07 e5bd 06dd 863d e1e5 e0bc
00000280: 45f9 613d 859d 20bd e6e2 1a3e fdd8 13bd
00000290: e168 e53c b0c5 393b e09b babd 4fb2 8d3d
000002a0: 7ffa 743d cf2a fd3d c33a b03d f782 bb3c
000002b0: 7427 053e 45ea 373d 9f1e f7bd 2505 8d3d
000002c0: abd5 dfbd 7d4a d8bd 9654 193d 5c88 84bd
000002d0: c542 ab3d 5a65 2cbd 530f 92bd 2ef2 45bd
000002e0: 127f 83bd 6d35 303d 367e 5c3d 704c 44bc
000002f0: 3983 553d 70b7 bebd 7612 453d 8558 2f3b
00000300: ec3a 1c3d 4497 21bd 6ac0 b33d 9873 3ebd
00000310: 517a 6b3d 30d2 cbbb b5af d73d 4d04 0f3d
00000320: 1c74 973d 59a6 03bd 876e af3d e9a5 fe3d
00000330: 67dd d13b 6aa3 1bbc 5dda 84bd f2e6 6abd
00000340: 3557 a5bd 1a28 88bd 3a9b fa3d ae80 21be
00000350: 3051 61bd 3018 063e 5ced d93c 8d76 113e
00000360: 42cf 583d be3c 0a3e 7b3c aebb 3e4c 753c
00000370: 422a 8abd e0dc 9a3d 3090 783d b51e 86bd
00000380: 77a2 963c 3558 c0bd 0306 eebd 1762 e93d
00000390: 9533 1d3d 3613 a63c a0e8 ee39 bef2 bcbd
000003a0: b80c 41bd 4ea7 60bd 27b9 9dbd bb01 bbbb
000003b0: 4fe5 5c3d 9734 f83d 148c 0cbb a49e 76bd
000003c0: e642 19be 5c45 e7bd d8a5 49bd 9987 763d
000003d0: 1530 20be d7a6 e53c 594e a339 1d85 ca3b
000003e0: 5efa ffbd 9a09 c3bd 40a8 3b3d bcf7 873d
000003f0: ca4f a13d 655f 42be fdfa 0e3c f0cb d93c
