model/nokkaew_model.pth (torch, 678373 bytes, 102 tensors)

token_embedding_table.weight f4 [452, 64]
0	0xc00f999b	-2.2437503
1	0xbf85b899	-1.044696
2	0xbf8b508c	-1.0883956
3	0xbf78766a	-0.97055686
4	0x3ff289a5	1.8948256
5	0x3f67ff4f	0.90623945
6	0xbf939972	-1.1531203
7	0x3fb5c682	1.4201205
8	0xbf36f426	-0.7146629
9	0x3e559f06	0.20861444
10	0x3f868317	1.0508755
11	0xbedd5e44	-0.4323598
12	0xbf26c49c	-0.6514375
13	0xbfa4ffe2	-1.2890589
14	0x3fa66336	1.2999027
15	0x3f96fa97	1.1795224
16	0x3dc36f0f	0.09542667
17	0xbf99eb41	-1.2024919
18	0xbf3d754f	-0.74007124
19	0x3f486b9b	0.7828919
20	0x3f8001c9	1.0000545
21	0xbf811d5c	-1.0087085
22	0x3f3ea3bb	0.7446858
23	0x3f0c5fd5	0.5483373
24	0xbf3ba61e	-0.7330035
25	0xbeac3b3e	-0.33638948
26	0xbf4c580c	-0.7982185
27	0xbca24c91	-0.0198119
28	0x3ed27536	0.4110505
29	0x3f7dce23	0.99142665
30	0xbfef015e	-1.8672292
31	0x3faca691	1.3488332
32	0xbfba79ed	-1.4568459
33	0x3f748de8	0.9552903
34	0xbe4e3aba	-0.2013959
35	0x40097441	2.1477206
36	0x3efc1d51	0.49241117
37	0xbd5e5641	-0.054281477
38	0xbf08de3a	-0.5346409
39	0x3f506671	0.81406313
40	0xbf44eae4	-0.76920915
41	0xbfe70cd9	-1.8050796
42	0xbda73b02	-0.08165552
43	0xbee71313	-0.4513174
44	0x3ee797fb	0.4523314
45	0xbe3ba1cd	-0.18323441
46	0x3f8695d8	1.0514479
47	0xbf15bf38	-0.584949
48	0x3e36911a	0.1782879
49	0xbf5aa564	-0.85408616
50	0x3fb0d668	1.3815432
51	0x3f68e660	0.90976524
52	0xbe52afcb	-0.20574872
53	0x3fc43f12	1.5331748
54	0xbfbb1be8	-1.4617891
55	0x3f76b27a	0.96366084
56	0xbee1d53f	-0.44108006
57	0x3da026ed	0.078199245
58	0xbe1a69c6	-0.15079412
59	0x3f41588a	0.75525725
60	0xbd5d35ff	-0.054006573
61	0x3fdc6dab	1.7220968
62	0xbf8f418d	-1.119188
63	0xbf1caab5	-0.6119798
64	0xbdda0dfc	-0.106471986
65	0x3fdb6209	1.7139293
66	0x3f82a2d4	1.0205941
67	0x3f172664	0.59042954
68	0xbe9471d6	-0.289931
69	0x3f3311c3	0.6994898
70	0xbe2fc51d	-0.17165036
71	0xbf921d88	-1.1415262
72	0xbf03bac9	-0.51456887
73	0x3fd6ad33	1.6771606
74	0xbffd7b03	-1.9803165
75	0x3fe67bd4	1.8006539
76	0x3fa79fc6	1.3095634
77	0xc005395e	-2.0816264
78	0x3d9b00ac	0.075684875
79	0x3fbd106f	1.477064
80	0x3e5f9da4	0.21837479
81	0xbe76f2dc	-0.24116081
82	0x3e566b89	0.20939459
83	0xbf190028	-0.59765863
84	0xbf8e6218	-1.1123686
85	0xbf182ae8	-0.5944047
86	0xbec8588c	-0.39130056
87	0x3f508ccf	0.81464857
88	0x3f8c2af1	1.0950605
89	0xbf347cac	-0.70502734
90	0x3fa12dab	1.2592062
91	0x4046acd5	3.1042988
92	0xbfe86b26	-1.8157699
93	0x3f9620fd	1.1728817
94	0x3ea1a9dd	0.31574908
95	0x3fc10c42	1.5081866
96	0x3ee3d795	0.44500414
97	0xbd73aa15	-0.059488375
98	0xbf584c64	-0.8449156
99	0x3f8f26f8	1.1183767
100	0x3f8c2c4f	1.0951022
101	0xc007d4e4	-2.1223688
102	0xbd0b9e18	-0.034086317
103	0xbf35335c	-0.70781493
104	0x3fee7c24	1.8631635
105	0x3f811280	1.0083771
106	0x3f2c50bd	0.67310697
107	0x3f5f49e6	0.87222135
108	0x3e0d6f75	0.13812049
109	0xbdb2ebe8	-0.08736402
110	0xbfe3744d	-1.7769867
111	0xbf74f500	-0.9568634
112	0x3f3c54ac	0.735667
113	0xbf13cc77	-0.57733864
114	0x3fb05360	1.3775444
115	0x3f7a7a08	0.97842455
116	0x3ea65e78	0.3249395
117	0x3fa17a9d	1.2615544
118	0xbe5386a5	-0.20656832
119	0xbf64405b	-0.891607
120	0xbcf8bf3a	-0.030364621
121	0xbee5fe0d	-0.44920388
122	0x3fdd4953	1.7288002
123	0xbf42ed14	-0.76143
124	0x3f0ba3e6	0.54546964
125	0xbff1e38e	-1.8897569
126	0x3e65390f	0.22385047
127	0xbe46aec7	-0.1940261
128	0xbf053840	-0.52038956
129	0x3f579eab	0.84226483
130	0xbed98d73	-0.4249073
131	0xbddc68c4	-0.1076217
132	0x3e93d194	0.28870833
133	0x3d94ced0	0.07266009
134	0x3f4922a8	0.78568506
135	0x3e8328df	0.2561712
136	0xbf82b563	-1.0211605
137	0xbf613cba	-0.87983286
138	0xbfc4ae9d	-1.5365788
139	0xbf8513b5	-1.0396639
140	0xbe135ae6	-0.14390144
141	0x3f210a31	0.62906176
142	0xbf077df8	-0.5292659
143	0x3f0311ba	0.51198924
144	0xbf67bac4	-0.90519357
145	0xbf0df30c	-0.55448985
146	0x3ede4322	0.43410593
147	0xbe143f13	-0.14477186
148	0x3f89a318	1.0752897
149	0xbf341599	-0.70345455
150	0x3f1a8156	0.603536
151	0x3ec45bed	0.38351384
152	0x3e8487bb	0.25884804
153	0xbee7ce25	-0.45274463
154	0xbfff863a	-1.9962838
155	0x3f81bd90	1.0135975
156	0xbf49c38d	-0.7881401
157	0xc00b08c3	-2.1724098
158	0x3f745471	0.9544135
159	0x3f877c70	1.058485
160	0x3d9311bb	0.07181116
161	0x3f50a446	0.8150066
162	0xbec84a95	-0.39119402
163	0x3fb2c050	1.3964939
164	0xbfc86667	-1.5656251
165	0x3ff4f8c4	1.9138417
166	0xbf128179	-0.5722881
167	0xbf9f4a0b	-1.2444471
168	0x3f06c25c	0.5264032
169	0xbeff2abb	-0.49837288
170	0xbfc234d3	-1.5172371
171	0x3eddb010	0.43298388
172	0x3f3d4505	0.7393344
173	0xbd9341a9	-0.07190258
174	0x3f28a808	0.65881395
175	0x3e2ab754	0.16671497
176	0x3fb42092	1.407244
177	0xbfdccfb2	-1.7250884
178	0x3fa253db	1.2681841
179	0x3e8fd6dc	0.28093612
180	0xbe98ad47	-0.298197
181	0x3d5042ee	0.05084508
182	0xbf4168ba	-0.75550425
183	0xbf0fd9d7	-0.5619177
184	0xbff13716	-1.8844936
185	0x3f077392	0.5291072
186	0x3ed5eac9	0.4178069
187	0xbf391f04	-0.7231295
188	0xbe3d113e	-0.18463609
189	0x400510c8	2.0791492
190	0x3f8c0645	1.0939413
191	0x3e511791	0.20419146
192	0x3f4abbeb	0.7919299
193	0x3e9b279f	0.30303666
194	0x3fc98c33	1.574591
195	0x3d337a09	0.043817554
196	0x3f97fe28	1.1874437
197	0xc03537da	-2.831534
198	0x3f29681a	0.6617447
199	0x3ff7d306	1.9361274
200	0xbefc8528	-0.4932034
201	0x3e941566	0.28922576
202	0x3fa52414	1.2901635
203	0xbfc64ff3	-1.5493149
204	0x3eef13ef	0.46694896
205	0x3f02cf81	0.51097876
206	0xbe5f35ed	-0.21797915
207	0x3fad9703	1.356171
208	0x3ceb1000	0.028694153
209	0xbf38b024	-0.7214377
210	0xbd6eacc6	-0.05827024
211	0xbe680a79	-0.22660245
212	0xbf252026	-0.6450218
213	0x3f808960	1.0041924
214	0x3f918dd2	1.1371405
215	0x3f0dd6d1	0.5540591
216	0xbf3149f0	-0.69253445
217	0xbf89868b	-1.0744184
218	0x3ea83555	0.3285319
219	0x3cda2aff	0.02663183
220	0x40084a44	2.1295328
221	0xbffb0ed5	-1.9613901
222	0x3e229195	0.15875848
223	0x3bce4a4d	0.0062954784
224	0x3eb48607	0.35258505
225	0x3f06c64c	0.52646327
226	0x3ef20440	0.47268867
227	0x3f508f38	0.81468534
228	0x3dd63bc5	0.10460619
229	0x3fc580e4	1.5429959
230	0xbf917862	-1.1364863
231	0x3f0e13ff	0.5549926
232	0x3fb875fa	1.4411004
233	0x3f56f521	0.8396779
234	0xbf06e049	-0.5268598
235	0xbe8647a7	-0.2622654
236	0x3ef80ae0	0.48445797
237	0x3fc156f8	1.5104666
238	0x3f0296d9	0.51011425
239	0x3d09b147	0.03361633
240	0x3c94d25c	0.018166713
241	0x3e66dafe	0.22544476
242	0x3f1f0403	0.62115496
243	0xbf4922c8	-0.78568697
244	0xbd9f9b5a	-0.07793303
245	0xbee61184	-0.44935238
246	0xbf685af7	-0.907638
247	0x3ef07710	0.46965837
248	0xbef1b714	-0.4720999
249	0xbf473e7c	-0.7782972
250	0xbfb1d14e	-1.3892
251	0x3f12588f	0.5716638
252	0xc024ba19	-2.5738585
253	0xbfa4cafc	-1.2874446
254	0xbf3cd263	-0.73758525
255	0xbf17f481	-0.5935746

position_embedding_table.weight f4 [32, 64]
0	0x3f890172	1.0703566
1	0xbf686927	-0.9078545
2	0x3ef9ff19	0.48827437
3	0xbf5c396e	-0.8602513
4	0xbf45d3da	-0.77276385
5	0xbf5a11df	-0.8518352
6	0x3eea261d	0.45732203
7	0xbfa430a5	-1.2827345
8	0xbe70fbc9	-0.23533548
9	0x3f95464f	1.1662081
10	0xbe38d3ef	-0.18049596
11	0xbf109a00	-0.56484985
12	0x4017bab5	2.3707707
13	0xbf86a3fc	-1.0518794
14	0x402d8d98	2.7117672
15	0x3f3acf45	0.7297252
16	0x3da5c939	0.08095021
17	0xbfa5bb02	-1.2947695
18	0xc0123585	-2.2845166
19	0x3f8b9579	1.090499
20	0xbf2c1b3b	-0.6722905
21	0x3fea34cb	1.8297361
22	0xbedc6691	-0.43047002
23	0x3fad8689	1.3556682
24	0x3fd1630b	1.635835
25	0xbe7e8a78	-0.24857509
26	0x3f3af52b	0.73030347
27	0x40016490	2.0217628
28	0xc00c071f	-2.1879346
29	0x3f14324b	0.5788924
30	0x3ea9bb61	0.3315077
31	0x3f7bf7b9	0.9842487
32	0xbea41444	-0.3204671
33	0x3f388e00	0.72091675
34	0xbea4c239	-0.3217943
35	0xbf44580e	-0.7669686
36	0xbf063f8b	-0.5244071
37	0x3e7c7bec	0.24656647
38	0x3fd8c9d2	1.6936591
39	0xbff0ca9a	-1.8811829
40	0x3e52410b	0.20532624
41	0xbe6d3dad	-0.23168059
42	0xbefd382f	-0.49456927
43	0xbf82425b	-1.01765
44	0x3f546087	0.8295979
45	0x3f0e3b97	0.55559677
46	0xbd32aca0	-0.04362166
47	0xbecf8cb5	-0.40537038
48	0xbe5c24df	-0.2149844
49	0xbfd14226	-1.6348312
50	0xbe7244c1	-0.2365904
51	0xbf39b624	-0.7254355
52	0xbf2dfdc8	-0.67965364
53	0x3fe82517	1.8136319
54	0xbee6f378	-0.45107627
55	0xc00020a5	-2.0019925
56	0xc00540d5	-2.082082
57	0xbde102a7	-0.10986834
58	0x3ea2bb28	0.31783414
59	0x3fcb030e	1.5860307
60	0x3e93f606	0.28898638
61	0x3eaa66aa	0.3328145
62	0x3f73c08a	0.95215666
63	0xbcb45325	-0.022012303
64	0x3e10da30	0.14145732
65	0xbf020dfa	-0.50802577
66	0xbefc39c6	-0.49262828
67	0x3fa510d8	1.2895765
68	0xbee4815e	-0.4462995
69	0x3f006bed	0.5016468
70	0xbf4bfa56	-0.7967886
71	0x3f663f86	0.8994068
72	0x3fbba70b	1.4660352
73	0xbd1bdac3	-0.038050424
74	0xbf83d261	-1.0298578
75	0xbfa83cf8	-1.3143606
76	0x3fa76fea	1.3081028
77	0xbe1bd9e9	-0.15219845
78	0x3eedd1de	0.46449178
79	0xbf9ba4c0	-1.2159653
80	0x3f5ce6cf	0.86289686
81	0x3ed6bc6f	0.41940638
82	0xbd59e1fe	-0.05319404
83	0x3e8dad88	0.27671456
84	0xbf31d48c	-0.69464946
85	0xbf4c82cf	-0.798871
86	0xbfd7b8d1	-1.6853276
87	0xbc71d419	-0.014760041
88	0x3e01febf	0.12694834
89	0xbecc8fcd	-0.3995346
90	0xbfc50c12	-1.5394309
91	0x3c5b0cbe	0.013369737
92	0x3f27b954	0.65517163
93	0xbba53968	-0.0050422437
94	0x3e17216f	0.14758848
95	0x3f8c719b	1.097217
96	0x387408e8	5.8182428e-05
97	0x3de352a8	0.1109975
98	0x400543c8	2.082262
99	0xbf822f34	-1.0170655
100	0x3f175305	0.5911105
101	0xbeef4926	-0.46735495
102	0xbe2aac63	-0.16667323
103	0x3fc7ec5f	1.561901
104	0x3f644d46	0.8918041
105	0x3ea9a0aa	0.3313039
106	0x3f4cd5f3	0.8001396
107	0xbe8063c9	-0.2507613
108	0xbec91172	-0.39271122
109	0xbf75382d	-0.9578884
110	0xbee70e93	-0.45128307
111	0xbf29ecde	-0.66377056
112	0x3ecac21e	0.39601225
113	0xbd6d82f9	-0.057986233
114	0xbe22d65d	-0.15902086
115	0x3e2cddba	0.16881457
116	0xbfbfbb7a	-1.4979088
117	0xbfcb1b1c	-1.5867648
118	0x3f1db476	0.61603487
119	0xbe03843b	-0.1284341
120	0xbeee9f83	-0.46606073
121	0x3f58bcc5	0.8466304
122	0x3f80e75f	1.0070609
123	0x3df88de0	0.121364355
124	0x3efd3bc9	0.49459675
125	0xbf376bf1	-0.7164908
126	0x3e8a80bc	0.27051342
127	0x3dd75cf0	0.10515773
128	0xbf90ef04	-1.1322942
129	0x3e7afb7e	0.24509999
130	0xbf12f0da	-0.5739876
131	0x3f81a4b6	1.0128391
132	0xbfc5f601	-1.54657
133	0xbf3e2c92	-0.7428676
134	0x3fb25e7c	1.3935084
135	0x3e9b54a4	0.30338013
136	0xbe839849	-0.25702122
137	0xbf2c6458	-0.6734061
138	0xbf058436	-0.5215486
139	0xbf3a59b4	-0.72793126
140	0xbedfafc7	-0.43688795
141	0xbe7dafad	-0.24774046
142	0x3c4e4188	0.012588866
143	0xbeb58810	-0.3545537
144	0xbdad5008	-0.084625304
145	0xbf4883e2	-0.7832624
146	0x3f16164a	0.5862776
147	0x3f813ada	1.0096085
148	0x3f800473	1.0001358
149	0xbf581418	-0.8440566
150	0xbee89742	-0.454279
151	0xbe9228fa	-0.28546888
152	0xbe8842e5	-0.26613536
153	0x3f2416ca	0.64097273
154	0x3ede7773	0.43450508
155	0x3fa06937	1.2532109
156	0xbea7c43d	-0.32766905
157	0xbed50682	-0.41606528
158	0xbdf26685	-0.1183596
159	0xbe2b375e	-0.1672034
160	0xbdc23126	-0.094820306
161	0xbf57501d	-0.8410662
162	0x3e500810	0.20315576
163	0x3d855bda	0.0651166
164	0xbd4b7cb8	-0.049679488
165	0x3ead72c7	0.3387663
166	0xbf2b34a1	-0.6687718
167	0x3fc900ae	1.5703332
168	0x3f767e73	0.96286696
169	0xbebea198	-0.3723266
170	0xbf683638	-0.9070773
171	0xbf40db82	-0.7533494
172	0xbedfe708	-0.4373095
173	0xbf763bdc	-0.9618509
174	0xbea74046	-0.32666224
175	0xbea64eaa	-0.3248189
176	0x3ee82a1c	0.45344627
177	0x3f8f1448	1.1178064
178	0xbe8ddf1c	-0.2770928
179	0x3f16db38	0.5892825
180	0xbfa7aac0	-1.3098984
181	0xbf968c83	-1.1761631
182	0x3e3f9d85	0.18712433
183	0xbebc522a	-0.36781436
184	0xbfc4a7d9	-1.5363723
185	0xbed89b1c	-0.4230584
186	0xbef66725	-0.48125568
187	0xbd4b9326	-0.04970088
188	0xbefbb319	-0.49160078
189	0xbecf3eb3	-0.40477523
190	0xbf50cc3f	-0.81561655
191	0xbea32f8f	-0.31872222
192	0xbf0053b4	-0.5012772
193	0xbf127d3b	-0.57222337
194	0xbece6779	-0.40313318
195	0x3eb7c5aa	0.35892993
196	0xbebe6dcf	-0.37193152
197	0xbe74c233	-0.23902206
198	0xbe460583	-0.1933804
199	0x3f2e7f62	0.6816312
200	0xbf00c21d	-0.50296193
201	0x3f141f01	0.5785981
202	0xbedc5ef5	-0.43041196
203	0xbf03d5d9	-0.5149818
204	0x3ec71774	0.3888508
205	0xbf3378d7	-0.7010626
206	0x3f19a8c5	0.60023147
207	0xbeb9e2ce	-0.3630585
208	0x3e97a4b6	0.29617852
209	0xbfb011ca	-1.3755429
210	0x3e8bd2ba	0.2730921
211	0x3ef20bbd	0.4727458
212	0x3db70afe	0.089376435
213	0xbfb0526c	-1.3775153
214	0x3e4b09cd	0.19827957
215	0x3f342fb7	0.7038531
216	0xbedb5819	-0.4284065
217	0x3ea0685b	0.31329617
218	0xbf4512e2	-0.7698194
219	0xbf427060	-0.7595272
220	0x3f436fdf	0.76342577
221	0x3c015aae	0.007895155
222	0xbdcf616a	-0.10126002
223	0x3ef51c53	0.47873172
224	0xbcb365c6	-0.021899115
225	0x3b3bfc07	0.0028684156
226	0x3fa332db	1.2749895
227	0xbfe874ce	-1.8160646
228	0x3f0e0b21	0.5548573
229	0x3dd66465	0.104683675
230	0xbf93e11a	-1.155307
231	0x3f63282f	0.8873319
232	0x3fb5586a	1.4167607
233	0x3f47840d	0.7793587
234	0x3eb4e05f	0.35327432
235	0x3ea5f312	0.3241201
236	0xbec46475	-0.38357893
237	0xbeaa9b4b	-0.33321604
238	0xbf8ecd4e	-1.1156404
239	0xbef349b5	-0.47517172
240	0x3f8f3f8c	1.1191268
241	0x3edc95a1	0.43082908
242	0xbe30b246	-0.17255506
243	0xbe6aaa48	-0.2291652
244	0xbf1e3b4b	-0.61809224
245	0xbf8ec6de	-1.115444
246	0xbf0abca5	-0.541941
247	0xbf17a311	-0.59233195
248	0xbe79b672	-0.24386004
249	0x3e68b645	0.2272578
250	0x3e08e2c7	0.13367759
251	0xbfce8744	-1.613503
252	0xbc96251a	-0.018328238
253	0x3deaee17	0.11471193
254	0x3fa957de	1.322994
255	0x3f8b7e2e	1.0897882

blocks.0.sa.heads.0.tril f4 [32, 32]
0	0x3f800000	1.0
1	0x00000000	0.0
2	0x00000000	0.0
3	0x00000000	0.0
4	0x00000000	0.0
5	0x00000000	0.0
6	0x00000000	0.0
7	0x00000000	0.0
8	0x00000000	0.0
9	0x00000000	0.0
10	0x00000000	0.0
11	0x00000000	0.0
12	0x00000000	0.0
13	0x00000000	0.0
14	0x00000000	0.0
15	0x00000000	0.0
16	0x00000000	0.0
17	0x00000000	0.0
18	0x00000000	0.0
19	0x00000000	0.0
20	0x00000000	0.0
21	0x00000000	0.0
22	0x00000000	0.0
23	0x00000000	0.0
24	0x00000000	0.0
25	0x00000000	0.0
26	0x00000000	0.0
27	0x00000000	0.0
28	0x00000000	0.0
29	0x00000000	0.0
30	0x00000000	0.0
31	0x00000000	0.0
32	0x3f800000	1.0
33	0x3f800000	1.0
34	0x00000000	0.0
35	0x00000000	0.0
36	0x00000000	0.0
37	0x00000000	0.0
38	0x00000000	0.0
39	0x00000000	0.0
40	0x00000000	0.0
41	0x00000000	0.0
42	0x00000000	0.0
43	0x00000000	0.0
44	0x00000000	0.0
45	0x00000000	0.0
46	0x00000000	0.0
47	0x00000000	0.0
48	0x00000000	0.0
49	0x00000000	0.0
50	0x00000000	0.0
51	0x00000000	0.0
52	0x00000000	0.0
53	0x00000000	0.0
54	0x00000000	0.0
55	0x00000000	0.0
56	0x00000000	0.0
57	0x00000000	0.0
58	0x00000000	0.0
59	0x00000000	0.0
60	0x00000000	0.0
61	0x00000000	0.0
62	0x00000000	0.0
63	0x00000000	0.0
64	0x3f800000	1.0
65	0x3f800000	1.0
66	0x3f800000	1.0
67	0x00000000	0.0
68	0x00000000	0.0
69	0x00000000	0.0
70	0x00000000	0.0
71	0x00000000	0.0
72	0x00000000	0.0
73	0x00000000	0.0
74	0x00000000	0.0
75	0x00000000	0.0
76	0x00000000	0.0
77	0x00000000	0.0
78	0x00000000	0.0
79	0x00000000	0.0
80	0x00000000	0.0
81	0x00000000	0.0
82	0x00000000	0.0
83	0x00000000	0.0
84	0x00000000	0.0
85	0x00000000	0.0
86	0x00000000	0.0
87	0x00000000	0.0
88	0x00000000	0.0
89	0x00000000	0.0
90	0x00000000	0.0
91	0x00000000	0.0
92	0x00000000	0.0
93	0x00000000	0.0
94	0x00000000	0.0
95	0x00000000	0.0
96	0x3f800000	1.0
97	0x3f800000	1.0
98	0x3f800000	1.0
99	0x3f800000	1.0
100	0x00000000	0.0
101	0x00000000	0.0
102	0x00000000	0.0
103	0x00000000	0.0
104	0x00000000	0.0
105	0x00000000	0.0
106	0x00000000	0.0
107	0x00000000	0.0
108	0x00000000	0.0
109	0x00000000	0.0
110	0x00000000	0.0
111	0x00000000	0.0
112	0x00000000	0.0
113	0x00000000	0.0
114	0x00000000	0.0
115	0x00000000	0.0
116	0x00000000	0.0
117	0x00000000	0.0
118	0x00000000	0.0
119	0x00000000	0.0
120	0x00000000	0.0
121	0x00000000	0.0
122	0x00000000	0.0
123	0x00000000	0.0
124	0x00000000	0.0
125	0x00000000	0.0
126	0x00000000	0.0
127	0x00000000	0.0
128	0x3f800000	1.0
129	0x3f800000	1.0
130	0x3f800000	1.0
131	0x3f800000	1.0
132	0x3f800000	1.0
133	0x00000000	0.0
134	0x00000000	0.0
135	0x00000000	0.0
136	0x00000000	0.0
137	0x00000000	0.0
138	0x00000000	0.0
139	0x00000000	0.0
140	0x00000000	0.0
141	0x00000000	0.0
142	0x00000000	0.0
143	0x00000000	0.0
144	0x00000000	0.0
145	0x00000000	0.0
146	0x00000000	0.0
147	0x00000000	0.0
148	0x00000000	0.0
149	0x00000000	0.0
150	0x00000000	0.0
151	0x00000000	0.0
152	0x00000000	0.0
153	0x00000000	0.0
154	0x00000000	0.0
155	0x00000000	0.0
156	0x00000000	0.0
157	0x00000000	0.0
158	0x00000000	0.0
159	0x00000000	0.0
160	0x3f800000	1.0
161	0x3f800000	1.0
162	0x3f800000	1.0
163	0x3f800000	1.0
164	0x3f800000	1.0
165	0x3f800000	1.0
166	0x00000000	0.0
167	0x00000000	0.0
168	0x00000000	0.0
169	0x00000000	0.0
170	0x00000000	0.0
171	0x00000000	0.0
172	0x00000000	0.0
173	0x00000000	0.0
174	0x00000000	0.0
175	0x00000000	0.0
176	0x00000000	0.0
177	0x00000000	0.0
178	0x00000000	0.0
179	0x00000000	0.0
180	0x00000000	0.0
181	0x00000000	0.0
182	0x00000000	0.0
183	0x00000000	0.0
184	0x00000000	0.0
185	0x00000000	0.0
186	0x00000000	0.0
187	0x00000000	0.0
188	0x00000000	0.0
189	0x00000000	0.0
190	0x00000000	0.0
191	0x00000000	0.0
192	0x3f800000	1.0
193	0x3f800000	1.0
194	0x3f800000	1.0
195	0x3f800000	1.0
196	0x3f800000	1.0
197	0x3f800000	1.0
198	0x3f800000	1.0
199	0x00000000	0.0
200	0x00000000	0.0
201	0x00000000	0.0
202	0x00000000	0.0
203	0x00000000	0.0
204	0x00000000	0.0
205	0x00000000	0.0
206	0x00000000	0.0
207	0x00000000	0.0
208	0x00000000	0.0
209	0x00000000	0.0
210	0x00000000	0.0
211	0x00000000	0.0
212	0x00000000	0.0
213	0x00000000	0.0
214	0x00000000	0.0
215	0x00000000	0.0
216	0x00000000	0.0
217	0x00000000	0.0
218	0x00000000	0.0
219	0x00000000	0.0
220	0x00000000	0.0
221	0x00000000	0.0
222	0x00000000	0.0
223	0x00000000	0.0
224	0x3f800000	1.0
225	0x3f800000	1.0
226	0x3f800000	1.0
227	0x3f800000	1.0
228	0x3f800000	1.0
229	0x3f800000	1.0
230	0x3f800000	1.0
231	0x3f800000	1.0
232	0x00000000	0.0
233	0x00000000	0.0
234	0x00000000	0.0
235	0x00000000	0.0
236	0x00000000	0.0
237	0x00000000	0.0
238	0x00000000	0.0
239	0x00000000	0.0
240	0x00000000	0.0
241	0x00000000	0.0
242	0x00000000	0.0
243	0x00000000	0.0
244	0x00000000	0.0
245	0x00000000	0.0
246	0x00000000	0.0
247	0x00000000	0.0
248	0x00000000	0.0
249	0x00000000	0.0
250	0x00000000	0.0
251	0x00000000	0.0
252	0x00000000	0.0
253	0x00000000	0.0
254	0x00000000	0.0
255	0x00000000	0.0

blocks.0.sa.heads.0.key.weight f4 [16, 64]
0	0xbd146a0e	-0.036233954
1	0xbe47be8f	-0.19506286
2	0x3c8d6606	0.017260563
3	0xbc8d18fa	-0.017223824
4	0x3cfb1bc6	0.030652892
5	0xbc116f21	-0.008876593
6	0x3e30dd3b	0.17271893
7	0x3dddc2b2	0.10828151
8	0x3d8084d4	0.06275335
9	0x3de4dda6	0.111750886
10	0x3d27777f	0.040885445
11	0xbe7ac7c4	-0.24490267
12	0x3ce93d5b	0.02847164
13	0x3c88cd0e	0.01669934
14	0xbe2ecf89	-0.17071356
15	0xbd73546a	-0.059406675
16	0x3df9ef4e	0.12203847
17	0xbe39bcfd	-0.181385
18	0xbe31714c	-0.17328376
19	0x3e6d9972	0.23203066
20	0x3c209abd	0.0098025175
21	0x3df91ef7	0.12164109
22	0x3cec89ea	0.028874356
23	0xbe4111c0	-0.18854427
24	0xbed43a72	-0.4145084
25	0xbe4cab64	-0.19987255
26	0x3dfb808f	0.1228038
27	0xbde1e713	-0.11030402
28	0x3d443942	0.047906168
29	0x3e3c0e9d	0.1836495
30	0xbd4f91a3	-0.050676
31	0x3e454c61	0.19267417
32	0x3c9547f5	0.018222788
33	0x3e4db4c3	0.20088486
34	0x3e15ca7f	0.14628027
35	0x3dd34f7b	0.10317894
36	0xbe84eaf4	-0.25960505
37	0x3e72372e	0.23653862
38	0x3dbfcbf7	0.09365075
39	0x3e008a4e	0.12552759
40	0x3e9ee9d2	0.31037766
41	0x3e675a9b	0.22593157
42	0xbd980690	-0.07423127
43	0xbe0c0653	-0.13674287
44	0x3da4b827	0.08042937
45	0x3cc85dc0	0.024458766
46	0xbbff6b88	-0.007794801
47	0xbd8c65a0	-0.06855321
48	0x3d3a1153	0.045426678
49	0xbc5ff71c	-0.013669755
50	0xbdea72c6	-0.114476725
51	0xbd7914b1	-0.06081075
52	0xbe7fd4e7	-0.2498356
53	0xbe2e93db	-0.1704859
54	0xbe4afe23	-0.19823508
55	0xbe2a6119	-0.16638602
56	0xbdacf284	-0.08444694
57	0x3bdd2a0d	0.0067493976
58	0xbbe5181b	-0.006991399
59	0x3eb69848	0.35663056
60	0x3e1978a5	0.14987428
61	0xbe04e861	-0.1297927
62	0x3e235328	0.1594969
63	0x3e55dcd7	0.20885025
64	0xbdd43a47	-0.10362678
65	0x3e332ef3	0.17498378
66	0xbe374521	-0.17897464
67	0x3bdb6492	0.0066953385
68	0x3e38958a	0.18025795
69	0x3de3fd52	0.111323014
70	0xbdaf6fe7	-0.085662656
71	0x3de62459	0.112374015
72	0xbdae2849	-0.085037775
73	0xbe2b9bc7	-0.16758643
74	0x3e9ad29e	0.30238813
75	0x3e05897b	0.13040726
76	0xbe3535b0	-0.17696261
77	0xbe09e771	-0.13467194
78	0xbcd05117	-0.025429292
79	0x3e2434bc	0.16035742
80	0x3ca11da0	0.019667447
81	0x3e7c72bd	0.24653144
82	0x3d6976a5	0.056997914
83	0xbca45fb5	-0.020065168
84	0xbd0559fe	-0.032556526
85	0xbbbc23ef	-0.0057415883
86	0xbea285e6	-0.3174278
87	0xbe8fbcb2	-0.2807365
88	0xbe3b2d3e	-0.18278977
89	0x3b7a0455	0.0038149555
90	0x3ca8e592	0.02061728
91	0xbe05447c	-0.13014406
92	0x3ca2bc95	0.019865314
93	0x3e59784a	0.21237293
94	0x3de27e4e	0.11059247
95	0x3db199af	0.08671891
96	0xbd94462c	-0.07239947
97	0x3e36a431	0.17836072
98	0xbe495982	-0.19663051
99	0xbe34260b	-0.17592637
100	0xbe9775a8	-0.29581952
101	0xbc95ab53	-0.01827017
102	0xbcb1f1db	-0.021721771
103	0xbcccc2c5	-0.024995217
104	0xbd15bd60	-0.036557555
105	0x3e199975	0.14999945
106	0xbcba2a49	-0.022725241
107	0xbde89e75	-0.11358348
108	0x3c843d25	0.016142437
109	0x3d98170a	0.07426269
110	0xbb7e69e7	-0.0038820447
111	0x3e56a60b	0.20961778
112	0xbe6f232e	-0.23353264
113	0xbd65ccdd	-0.056103576
114	0xbe3fe252	-0.18738678
115	0xbe60b25a	-0.21943036
116	0x3d5b9419	0.053608034
117	0x3cebbf17	0.028777642
118	0xbd25324e	-0.040331177
119	0x3da3b8cb	0.07994231
120	0x3d6973a7	0.05699506
121	0xbd0e4289	-0.03473142
122	0xbd9ab1ba	-0.0755343
123	0x3decdb04	0.115652114
124	0xbcb5a5b5	-0.022173742
125	0x3e195c77	0.14976679
126	0x3d4cf6d3	0.050040077
127	0xbd242c4d	-0.04008131
128	0x3c09a5ce	0.008401347
129	0x3ca1bd5c	0.019743614
130	0xbdfb55de	-0.12272237
131	0xbd1df0ae	-0.03855961
132	0x3d8ee9d9	0.06978197
133	0xbea09c0e	-0.3136906
134	0xbe10d7ea	-0.14144865
135	0xbdfdfba9	-0.12401516
136	0xbd3d7bb1	-0.04626054
137	0x3cef0342	0.029176358
138	0xbc9c6332	-0.019090269
139	0x3d5a8e22	0.053358205
140	0xbd38d389	-0.04512361
141	0x3d3a3af0	0.045466363
142	0x3e8777f0	0.26458693
143	0xbe0424dd	-0.12904687
144	0x3e833108	0.25623345
145	0xbe1c32f6	-0.15253815
146	0x3e3c8ab4	0.18412286
147	0xbdb0a0a0	-0.08624387
148	0x3e1f5d86	0.1556302
149	0xbd490002	-0.049072273
150	0xbdf78eb4	-0.12087765
151	0x3d9cacf5	0.076501764
152	0xbdacba60	-0.08433986
153	0x3cf9cdd9	0.030493664
154	0x3ec90eee	0.39269203
155	0xbced0d02	-0.028936867
156	0x3d59c2e7	0.05316439
157	0x3e0bac7c	0.13640016
158	0x3e186f0e	0.14886114
159	0x3e8267e0	0.25469875
160	0x3c4d0dc9	0.012515494
161	0x3d851d8d	0.06499777
162	0x3e0bbb0a	0.13645568
163	0x3e4a4b0b	0.19755189
164	0xbe501733	-0.2032135
165	0xb7c19098	-2.3074725e-05
166	0xbe117bdd	-0.14207406
167	0x3e455344	0.19270045
168	0xbe4a7314	-0.19770461
169	0x3de8524a	0.113438204
170	0x3db9ed3b	0.09078451
171	0x3df6c9b3	0.1205019
172	0x3e50d537	0.20393835
173	0x3e398ef5	0.1812094
174	0xbe38e94e	-0.18057749
175	0x3bff7cff	0.007796883
176	0x3c40451b	0.011735226
177	0x3d3f95cd	0.04677372
178	0xbb85ce58	-0.004083436
179	0x3e30f30d	0.17280217
180	0xbd5a29b4	-0.053262427
181	0xbdc15cf4	-0.094415575
182	0xbe8ae73b	-0.2712954
183	0xbd86555f	-0.06559252
184	0x3cc1e1cb	0.023667237
185	0x3db7e9d6	0.089801475
186	0x3da293f6	0.079383776
187	0xbe7667fc	-0.24063104
188	0x3ab87e0c	0.0014075651
189	0xbda49b41	-0.08037425
190	0x3da96786	0.08271699
191	0x3da89e6b	0.08233341
192	0x3dddbd14	0.108270794
193	0xbd9237df	-0.07139563
194	0xbe3cdfa5	-0.18444689
195	0x3cf0d764	0.029399581
196	0xbdf5ba8a	-0.1199847
197	0xbeac265f	-0.33623025
198	0x3d7a1b10	0.061060965
199	0x3e4576b2	0.1928356
200	0xbd4f2206	-0.050569557
201	0xbe0160c5	-0.12634571
202	0xbcd3365e	-0.02578276
203	0xbe9449ec	-0.28962648
204	0xbd18a7db	-0.037269454
205	0xbddabf41	-0.1068101
206	0x3e06bf05	0.13158806
207	0x3e238cc4	0.15971667
208	0xbe239c78	-0.15977657
209	0x3def3277	0.11679547
210	0xbe3bee5b	-0.18352644
211	0x3ddde605	0.10834888
212	0xbe02e58e	-0.1278288
213	0x3e2f74f3	0.17134456
214	0xbe0c99c2	-0.13730529
215	0xbd9f5bdd	-0.077811934
216	0xbe5352b7	-0.20637022
217	0xbd0ca890	-0.03434044
218	0xbdfd3441	-0.12363482
219	0x3e4ffcbb	0.20311253
220	0xbe8126a1	-0.25224784
221	0x3e049d21	0.12950565
222	0xbd98a514	-0.07453361
223	0xbd99bc26	-0.075065896
224	0x3e2b22d7	0.16712509
225	0x3e6ea9f8	0.23307025
226	0x3dbbb109	0.09164626
227	0x3e0ffd24	0.14061409
228	0x3e230a3f	0.15921877
229	0x3d8a782d	0.06761203
230	0xbde56a19	-0.11201877
231	0x3e0f02c3	0.13965897
232	0x3e22550f	0.1585276
233	0xbe48991d	-0.19589658
234	0x3dbff88d	0.09373579
235	0x3e773b54	0.24143726
236	0x3d565a23	0.052332055
237	0xbdd4cc10	-0.10390484
238	0xbe7db423	-0.24775748
239	0xbdb619ec	-0.08891663
240	0xbdd18f91	-0.10232461
241	0xbe2ed8f4	-0.17074949
242	0x3da55e39	0.08074612
243	0x3e33209e	0.17492911
244	0x3dce3027	0.10067778
245	0xbb141589	-0.0022595844
246	0xbd5357af	-0.051597293
247	0x3e7dff55	0.24804433
248	0x3e4e0489	0.20118918
249	0xbe11d30f	-0.14240669
250	0xbc62ef75	-0.013851036
251	0x3e4acbfe	0.1980438
252	0xbd62e669	-0.055395517
253	0x3e6c9c0e	0.23106405
254	0x3e0b99a8	0.13632834
255	0x3e9cd835	0.30633703

blocks.0.sa.heads.0.query.weight f4 [16, 64]
0	0x3ce5cd19	0.0280519
1	0x3e0bfdc0	0.13671017
2	0x3bd38270	0.0064547583
3	0xbe533cdd	-0.20628686
4	0xbe0bc6a7	-0.13649999
5	0xbe53c695	-0.20681222
6	0x3e5ee296	0.21766123
7	0x3d69536d	0.056964327
8	0x3eb83502	0.35977942
9	0xbe1143a6	-0.14185962
10	0x3e09363a	0.13399592
11	0x3dbc3777	0.091902666
12	0x3df18889	0.1179362
13	0x3eabf9fe	0.33589166
14	0xbe8d74d8	-0.27628207
15	0x3e2a2fec	0.16619843
16	0xbe1b4d36	-0.15166172
17	0x3e524e30	0.20537639
18	0x3e0f08a8	0.13968146
19	0xbe84d9d5	-0.25947443
20	0xbc83bd7e	-0.016081568
21	0x3d5a3733	0.0532753
22	0x3dd523fa	0.104072526
23	0x3d91dee4	0.07122591
24	0xbe0f2355	-0.13978322
25	0xbdaacc72	-0.08339776
26	0x3dbb31ac	0.091403335
27	0x3dbd38a5	0.0923932
28	0x3e0949e1	0.13407089
29	0xbc4d795f	-0.012541144
30	0xbcea5c3a	-0.02860843
31	0xbdc28c0e	-0.094993696
32	0xbdf8600d	-0.12127695
33	0xbe7efdba	-0.24901477
34	0xbdbd5702	-0.09245111
35	0xbe945278	-0.2896917
36	0xbd5e29c4	-0.05423905
37	0xbdc1870d	-0.09449587
38	0x3e1f960f	0.15584587
39	0x3d61d564	0.055135146
40	0x3db6a7e3	0.089187406
41	0x3e8ff04d	0.28113022
42	0xbdd28f38	-0.10281223
43	0xbe61df29	-0.22057785
44	0xbe8e7250	-0.2782159
45	0xbd6251a5	-0.055253644
46	0x3e492089	0.19641317
47	0x3d911b6f	0.07085311
48	0x3cc82051	0.024429472
49	0x3d57387a	0.052544095
50	0xbe9cacea	-0.30600673
51	0x3cb88cbc	0.022528045
52	0x3c2beb15	0.01049306
53	0xbdf955ec	-0.121745914
54	0x3e1b9178	0.1519221
55	0xbea007ae	-0.3125586
56	0x3de05c45	0.10955099
57	0x3d6b08cd	0.05738144
58	0x3dd503cd	0.104011156
59	0x3e21698f	0.15762924
60	0xbe8c98c0	-0.2746029
61	0xbe17a495	-0.14808877
62	0x3e10cc59	0.14140452
63	0x3dfd6bea	0.123740986
64	0x3d4e034c	0.050296113
65	0x3e252d43	0.16130547
66	0xbd98b637	-0.0745663
67	0x3d42db92	0.04757268
68	0xbeaf54fe	-0.3424453
69	0xbe23fd6a	-0.16014639
70	0x3dfacc75	0.12246028
71	0xbda279ef	-0.07933413
72	0x3d763aa6	0.060114525
73	0x3d06836f	0.03284019
74	0x3e0b04c5	0.13576038
75	0xbe1294ca	-0.14314571
76	0x3ed3ec84	0.41391385
77	0x3cc649be	0.024205085
78	0xbeb20bd3	-0.34774646
79	0x3df43830	0.119247794
80	0xbe320f77	-0.17388712
81	0xbc9469c2	-0.018116836
82	0xbd79d7bf	-0.060996767
83	0xbd8c5f99	-0.06854171
84	0x3db5bda3	0.08874061
85	0x3c2eda9a	0.010672236
86	0x3d09b044	0.033615366
87	0x3d0c9ef2	0.03433127
88	0xbded3be1	-0.115836866
89	0x3e3606c0	0.17776012
90	0x3e3ba7f8	0.18325794
91	0x3c7f8513	0.015595692
92	0xbd119df5	-0.03555103
93	0xbd2c50fb	-0.042069416
94	0xbe0741df	-0.13208722
95	0xbdc97681	-0.09837056
96	0xbe13e05f	-0.1444106
97	0x3ca02bd1	0.019552143
98	0xbdee5f9b	-0.11639329
99	0xbe3248b0	-0.1741054
100	0xbde02eff	-0.10946464
101	0x3d410c01	0.04713059
102	0xbe4a11f5	-0.19733413
103	0xbe2d134b	-0.16901891
104	0xbcca20ba	-0.024673808
105	0x3d4b9c84	0.04970981
106	0x3e82c00e	0.2553715
107	0x3d36e458	0.04465136
108	0xbe2577a6	-0.16158924
109	0x3d331ff1	0.043731634
110	0xbd0ffec4	-0.035155073
111	0x3d00245f	0.031284686
112	0x3dbd7c95	0.09252278
113	0x3cc55a0d	0.024090791
114	0x3e0621f4	0.1309889
115	0xbe9043a1	-0.28176597
116	0xbd1f9b32	-0.038966365
117	0x3d55f91f	0.052239534
118	0xbd540424	-0.05176176
119	0x3df0d72a	0.11759789
120	0xbeae053a	-0.33988363
121	0x3e2e8600	0.17043304
122	0xbd8fa011	-0.07012952
123	0xbd887919	-0.066637225
124	0x3db1a741	0.08674479
125	0xbd7aafb1	-0.06120271
126	0x3db25b03	0.08708765
127	0xbe26d000	-0.16290283
128	0x3d24507b	0.040115815
129	0xbd21fb8c	-0.039546534
130	0x3dce3194	0.1006805
131	0xbe6bb78f	-0.23019241
132	0x3d34851f	0.044072267
133	0xbd4ecd6e	-0.05048888
134	0x3ddbce9a	0.107327655
135	0xbdd979fb	-0.10618969
136	0x3df2271c	0.11823866
137	0xbd15a8d4	-0.03653796
138	0x3caae6d0	0.020862013
139	0xbdec4854	-0.11537233
140	0xbdafe275	-0.08588115
141	0x3d19aded	0.037519384
142	0xbc5712a6	-0.013127005
143	0xbe510bea	-0.20414701
144	0xbd707f43	-0.058715116
145	0xbe89c256	-0.2690608
146	0x3d8a9528	0.067667305
147	0x3d3c22cb	0.04593162
148	0x3e4ab933	0.1979721
149	0x3e6cdbfc	0.23130792
150	0x3d440094	0.047852114
151	0x3c392544	0.011300389
152	0xbe471ff1	-0.19445778
153	0x3d3de97d	0.04636525
154	0xbe68a0ad	-0.22717543
155	0x3e090ab4	0.13382989
156	0x3e8a4062	0.27002245
157	0xbde0239b	-0.10944291
158	0x3e43c068	0.19116366
159	0xbdaa9a21	-0.08330179
160	0xbe1b64e1	-0.15175201
161	0xbe58e024	-0.21179253
162	0x3d5d6cd1	0.054058854
163	0xbe10ed46	-0.14153013
164	0x3c68ef52	0.014217215
165	0x3e82da8d	0.25557366
166	0xbeb2fb74	-0.34957469
167	0xbcf3dc7c	-0.029768221
168	0xbd670812	-0.05640418
169	0xbe6ccdec	-0.23125428
170	0x3e17b54e	0.14815256
171	0x3ce833bd	0.028344983
172	0x3d9b0647	0.07569557
173	0xbdf42d8b	-0.11922749
174	0x3e62a1fb	0.22132103
175	0x3e245709	0.16048826
176	0x3ce898d5	0.028393188
177	0xbe22ebf9	-0.15910329
178	0x3dc96504	0.0983372
179	0x3d4de24f	0.050264653
180	0x3db16f11	0.08663762
181	0x3e6bd942	0.23032096
182	0x3e14e395	0.1453994
183	0xbe559130	-0.20856166
184	0xbc5bd19e	-0.013416676
185	0xbda73a37	-0.081654005
186	0x3e87eca2	0.26547724
187	0x3e6dfefc	0.232418
188	0x3e34a743	0.1764193
189	0x3e9d4ccb	0.3072265
190	0x3e223c11	0.15843226
191	0xbe21bc06	-0.15794381
192	0xbe817166	-0.2528183
193	0x3c472563	0.01215491
194	0x3ea72c11	0.32650807
195	0xbdce801f	-0.10083031
196	0xbdd7314b	-0.10507449
197	0x3d9129dc	0.07088062
198	0xbda70230	-0.08154714
199	0xbe2523c3	-0.16126923
200	0xbbbc2fcd	-0.005743003
201	0x3e187cda	0.14891377
202	0x3e0fabb2	0.1403034
203	0x3aa1db4c	0.0012348681
204	0x3de92cf9	0.11385531
205	0xbe05c975	-0.13065131
206	0x3da3e2ce	0.08002244
207	0x3d27c5e3	0.040960204
208	0xbd9cee8e	-0.07662688
209	0x3e90ebfb	0.2830504
210	0x3d6572c7	0.056017663
211	0x3e24ac65	0.16081388
212	0xbe8b0348	-0.2715094
213	0x3e57475c	0.21023315
214	0xbd981354	-0.074255615
215	0xbe4920da	-0.19641438
216	0x3e6db2b7	0.23212706
217	0xbafc6d32	-0.0019258617
218	0x3e15b967	0.14621507
219	0x3d0580fc	0.032593712
220	0x3e2b86b5	0.16750605
221	0x3e84e1b8	0.2595346
222	0x3da0ac63	0.0784538
223	0xbca184b5	-0.0197166
224	0x3e3a170d	0.18172856
225	0x3d3a8d4d	0.04554491
226	0xbe006748	-0.12539399
227	0xbda628ab	-0.081132255
228	0x3cb32fee	0.02187344
229	0x3db88fa3	0.090117715
230	0xbe0416cc	-0.12899321
231	0xbd8c3643	-0.06846287
232	0x3e817290	0.25282717
233	0x3e2b46c8	0.1672622
234	0x3e3cb0e9	0.18426861
235	0xbd4cc46a	-0.049992003
236	0xbc89134d	-0.016732836
237	0xbd8dbc6a	-0.06920703
238	0xbe4ec795	-0.20193322
239	0x3c2f950b	0.010716687
240	0xbdb4036b	-0.087897144
241	0xbe77b909	-0.24191679
242	0xbd6384c6	-0.055546544
243	0x3e21eb86	0.15812501
244	0xbd9d2d57	-0.076746635
245	0xbe19b61a	-0.15010872
246	0xbd075f02	-0.03304959
247	0xbc772dbd	-0.015086588
248	0xbe0f19b3	-0.13974647
249	0xbbef3d2c	-0.0073009934
250	0xbc9c3998	-0.019070432
251	0x3e73cc41	0.23808385
252	0xbd976151	-0.073916085
253	0x3d928cc8	0.07155758
254	0x3e69b895	0.22824319
255	0x3e52e1e0	0.20593977

blocks.0.sa.heads.0.value.weight f4 [16, 64]
0	0x3d326fab	0.043563526
1	0xbd9f6a94	-0.07784
2	0x3d80730d	0.06271944
3	0x3c88efc4	0.016715892
4	0x3e07bc67	0.13255464
5	0x3da55d5e	0.08074449
6	0x3cdf798b	0.027279636
7	0x3dcce098	0.10003775
8	0x3cd21ba3	0.025647944
9	0x3d85049e	0.06495021
10	0xbd0caec9	-0.034346376
11	0xbc92a7dd	-0.01790231
12	0xbc6ebc8b	-0.014571319
13	0x3e589ab4	0.21152765
14	0x3bd90a56	0.0066235466
15	0x3b327aa1	0.0027233737
16	0xbda978ed	-0.08275018
17	0xbe0814fa	-0.13289252
18	0x3ca4c1ce	0.020111945
19	0x3d7107b8	0.05884525
20	0x3d003461	0.031299952
21	0xbe2e1733	-0.17001037
22	0x3b9e3f24	0.0048293043
23	0x3d526acd	0.051371384
24	0x3cde8b92	0.027166162
25	0xbe0a9ffc	-0.13537592
26	0x3db3b5d5	0.08774916
27	0x3c84409d	0.016144091
28	0xbd845495	-0.06461445
29	0x3c45afd1	0.012065844
30	0x3d00cf37	0.031447615
31	0x3d6e4681	0.058172707
32	0x3dc7e27f	0.097599976
33	0x3d678014	0.05651863
34	0xbd43b3e6	-0.047778986
35	0xbdd93728	-0.10606223
36	0x3e030d1a	0.12797967
37	0xbe003481	-0.12520029
38	0xbcd3ecc1	-0.025869729
39	0xbc792f6b	-0.015209059
40	0x3d2e80d9	0.042603347
41	0x3ca0a79a	0.019611169
42	0x3ac941f6	0.0015354741
43	0x39cbba55	0.00038858005
44	0x3d1b6783	0.037940513
45	0x3d93e159	0.07220716
46	0x3d3ff490	0.046864092
47	0xbde7cd86	-0.11318497
48	0x3c4b5252	0.012409763
49	0x3de3b4ff	0.11118507
50	0xbe155b31	-0.14585568
51	0x3de37f44	0.11108258
52	0x3e3c72cc	0.18403167
53	0x3dad7cad	0.08471046
54	0xbca69334	-0.020333864
55	0xbcba9fe9	-0.02278133
56	0xbd66490b	-0.056222003
57	0xbdb5b798	-0.08872908
58	0x3e3faace	0.187175
59	0xbc103151	-0.00880082
60	0xbd32b8b6	-0.043633185
61	0xbd81b603	-0.06333544
62	0xbe13686d	-0.14395304
63	0x3d0be106	0.034150146
64	0xbdaee279	-0.0853929
65	0xbdc0648d	-0.093941785
66	0x3d2de4c9	0.042454515
67	0xbc4bb267	-0.012432671
68	0xbd988c64	-0.074486524
69	0x3d017963	0.031609904
70	0xbddc8ff6	-0.10769646
71	0x3d0f3084	0.034958377
72	0x3c41fe43	0.011840406
73	0x3e0af635	0.13570483
74	0x3df58429	0.11988098
75	0xbc4b1b6c	-0.012396675
76	0xbbff6d8a	-0.0077950405
77	0x3cb98bed	0.02264973
78	0xbd4e1dc8	-0.05032137
79	0x3d218455	0.039432842
80	0x3d9c4e66	0.07632141
81	0xbce43e5d	-0.027861768
82	0x3d8fa82f	0.070145
83	0xbce51b62	-0.027967159
84	0xbdcde311	-0.10053075
85	0x3d615cc6	0.055020116
86	0xbcb41614	-0.021983184
87	0xbd3762f1	-0.044772092
88	0x3d40e800	0.047096252
89	0x3d920854	0.07130495
90	0x3d9844c4	0.07434991
91	0xbd87c32d	-0.06629024
92	0xbc9bb2e0	-0.019006193
93	0xbd0d013c	-0.034425005
94	0x3cbe87dd	0.023258144
95	0x3e00b641	0.12569524
96	0x3e0853f2	0.13313273
97	0x3e0790ba	0.13238803
98	0x3dc74f95	0.09731976
99	0x3da7e798	0.0819847
100	0x3d8ab29d	0.06772349
101	0x3dfe9ee2	0.12432648
102	0x3e01be8e	0.12670347
103	0x3d0b1a1d	0.03396045
104	0x3d1f37e6	0.03887167
105	0xbd3d98c0	-0.046288252
106	0xbc2ef2e6	-0.010678029
107	0xbcf81a49	-0.030285971
108	0xbe0bf5fb	-0.13668053
109	0xbc3e14b9	-0.01160162
110	0xbd9e14b8	-0.077187955
111	0xbe380cf5	-0.17973693
112	0xbda288d7	-0.079362564
113	0x3d2e409c	0.042542085
114	0x3c058b96	0.008150956
115	0xbe01f3d3	-0.12690668
116	0x3e0fe7a8	0.14053214
117	0xbb97fa5f	-0.004638001
118	0x3d159707	0.036520984
119	0xbd0902a4	-0.033449784
120	0xbd5d5b38	-0.05404207
121	0xbbc01355	-0.0058616796
122	0x3dcedfb3	0.10101261
123	0x3da3691e	0.07979034
124	0xbdeb58e3	-0.11491563
125	0xbdd46418	-0.10370654
126	0x3cd60dbd	0.026129598
127	0xbda10d22	-0.07863833
128	0xbc20a5bd	-0.00980514
129	0xbe0ab8ad	-0.1354701
130	0x3d837e4e	0.06420575
131	0x3ba77be6	0.0051112054
132	0xbdee7a2f	-0.116443984
133	0x3bbabf6e	0.0056990897
134	0xbd03fe96	-0.032225214
135	0xbda51ce9	-0.08062155
136	0xbd345a02	-0.04403115
137	0xbcc147d3	-0.023593819
138	0xbd85cabc	-0.06532809
139	0xbd4ffb75	-0.050776917
140	0x3cb362ee	0.02189776
141	0xbd9864ef	-0.074411266
142	0x3a364581	0.0006953106
143	0xbd4e2648	-0.050329477
144	0xbd8f030c	-0.06983003
145	0xbca122e1	-0.019669952
146	0xbe25e50e	-0.16200659
147	0x3e053812	0.1300967
148	0xbd3147ee	-0.043281488
149	0xbde2a377	-0.11066335
150	0x3e09384a	0.13400379
151	0xbcffc028	-0.031219557
152	0x3cb1aaf4	0.021687962
153	0x3d189aed	0.037257124
154	0xbdc874e7	-0.09787922
155	0xbdc04ede	-0.09390043
156	0x3d61e8ee	0.05515378
157	0xbcb7363d	-0.02236473
158	0x3e17f644	0.14840037
159	0x3c956e09	0.018240945
160	0x3d6c1fcd	0.057647515
161	0x3dd6933c	0.104773015
162	0x3c96dcb6	0.01841579
163	0x3d2eb5a6	0.042653702
164	0x3b557805	0.0032572758
165	0x3e369352	0.17829636
166	0x3da5a469	0.080879994
167	0xbda356ff	-0.079755776
168	0xbca23d6a	-0.019804675
169	0x3cacb192	0.021080766
170	0xbe08c331	-0.1335571
171	0xbd4aae0f	-0.0494824
172	0xbbe0845b	-0.0068517155
173	0xbe7638c7	-0.24045096
174	0xbbe867f7	-0.0070924717
175	0xbd10b0fb	-0.03532503
176	0x3ca730f6	0.020409089
177	0x3dafc328	0.08582145
178	0xbce9df55	-0.028548876
179	0x3bc7d5fe	0.006098508
180	0x3dab3518	0.08359736
181	0x3dc5e631	0.09663046
182	0xbc63a8e3	-0.013895246
183	0x3de5606e	0.11200033
184	0xbd99fdc5	-0.07519106
185	0x3cffd67d	0.031230206
186	0x3e1a0015	0.15039094
187	0xbcfeb22c	-0.031090818
188	0x3c46f92a	0.012144366
189	0xbd0a2b47	-0.03373268
190	0xbd8ea803	-0.069656394
191	0xbd9cbce6	-0.07653217
192	0x3d513f8a	0.051085986
193	0xbcb23635	-0.021754364
194	0xbce7aa58	-0.028279468
195	0x3b815059	0.0039463458
196	0x3b9cddda	0.004787189
197	0xbd642916	-0.055703245
198	0xbc498aca	-0.012301156
199	0xbe424456	-0.1897138
200	0xbd976e59	-0.07394094
201	0xbd5407d0	-0.051765263
202	0xbc2fbb8e	-0.010725869
203	0xbe04efca	-0.12982097
204	0xbd92726d	-0.07150731
205	0xbdd00a9f	-0.10158276
206	0x3dfd9871	0.123825915
207	0xbc62b116	-0.013836166
208	0xbd50ee24	-0.05100836
209	0xbdb5ecc8	-0.08883053
210	0x3d727730	0.059195697
211	0xbe0d263d	-0.13784118
212	0x3e3047ea	0.17214933
213	0xbd8d6031	-0.06903113
214	0x3b90e9cc	0.004422402
215	0xbe2e13e4	-0.16999775
216	0xbd164c69	-0.036693964
217	0x3d46cb4e	0.04853373
218	0xbe141b41	-0.14463522
219	0x3d8d0c36	0.06887095
220	0xbaa3941f	-0.0012480057
221	0xbc2c27a9	-0.010507503
222	0xbdcf698f	-0.101275556
223	0x3c692f7a	0.014232511
224	0x3e1cf03c	0.15326017
225	0xbe2bbcc6	-0.1677123
226	0xbd00b87a	-0.03142593
227	0xbd5a42cd	-0.053286362
228	0x3cf7164d	0.030162001
229	0xbc826f2d	-0.015922153
230	0x3e1d6f0b	0.15374391
231	0x3dbc3583	0.09189894
232	0x3d8558ef	0.06511103
233	0xbd83743f	-0.064186566
234	0xbd1a2154	-0.03762944
235	0x3c7d5150	0.015461281
236	0x3d0aaaba	0.033854224
237	0x3cd5c1cf	0.026093392
238	0x3db05c74	0.08611384
239	0x3cf5f1c1	0.030022504
240	0xbcf8bc66	-0.030363273
241	0xbb4dbda1	-0.0031393545
242	0xbbd4a93c	-0.006489901
243	0xbe4458f0	-0.19174552
244	0x3dda7830	0.10667455
245	0xbb7ca44b	-0.0038550075
246	0xbc0b28a2	-0.008493574
247	0xbd6b902c	-0.05751054
248	0xbd859893	-0.06523242
249	0x3ccc7688	0.024958864
250	0xbd472190	-0.048615992
251	0xbc98931f	-0.01862484
252	0xbc557cb5	-0.013030221
253	0x3cd70e99	0.026252078
254	0xbd27f55d	-0.04100548
255	0x3d934395	0.071906246

blocks.0.sa.heads.1.tril f4 [32, 32]
0	0x3f800000	1.0
1	0x00000000	0.0
2	0x00000000	0.0
3	0x00000000	0.0
4	0x00000000	0.0
5	0x00000000	0.0
6	0x00000000	0.0
7	0x00000000	0.0
8	0x00000000	0.0
9	0x00000000	0.0
10	0x00000000	0.0
11	0x00000000	0.0
12	0x00000000	0.0
13	0x00000000	0.0
14	0x00000000	0.0
15	0x00000000	0.0
16	0x00000000	0.0
17	0x00000000	0.0
18	0x00000000	0.0
19	0x00000000	0.0
20	0x00000000	0.0
21	0x00000000	0.0
22	0x00000000	0.0
23	0x00000000	0.0
24	0x00000000	0.0
25	0x00000000	0.0
26	0x00000000	0.0
27	0x00000000	0.0
28	0x00000000	0.0
29	0x00000000	0.0
30	0x00000000	0.0
31	0x00000000	0.0
32	0x3f800000	1.0
33	0x3f800000	1.0
34	0x00000000	0.0
35	0x00000000	0.0
36	0x00000000	0.0
37	0x00000000	0.0
38	0x00000000	0.0
39	0x00000000	0.0
40	0x00000000	0.0
41	0x00000000	0.0
42	0x00000000	0.0
43	0x00000000	0.0
44	0x00000000	0.0
45	0x00000000	0.0
46	0x00000000	0.0
47	0x00000000	0.0
48	0x00000000	0.0
49	0x00000000	0.0
50	0x00000000	0.0
51	0x00000000	0.0
52	0x00000000	0.0
53	0x00000000	0.0
54	0x00000000	0.0
55	0x00000000	0.0
56	0x00000000	0.0
57	0x00000000	0.0
58	0x00000000	0.0
59	0x00000000	0.0
60	0x00000000	0.0
61	0x00000000	0.0
62	0x00000000	0.0
63	0x00000000	0.0
64	0x3f800000	1.0
65	0x3f800000	1.0
66	0x3f800000	1.0
67	0x00000000	0.0
68	0x00000000	0.0
69	0x00000000	0.0
70	0x00000000	0.0
71	0x00000000	0.0
72	0x00000000	0.0
73	0x00000000	0.0
74	0x00000000	0.0
75	0x00000000	0.0
76	0x00000000	0.0
77	0x00000000	0.0
78	0x00000000	0.0
79	0x00000000	0.0
80	0x00000000	0.0
81	0x00000000	0.0
82	0x00000000	0.0
83	0x00000000	0.0
84	0x00000000	0.0
85	0x00000000	0.0
86	0x00000000	0.0
87	0x00000000	0.0
88	0x00000000	0.0
89	0x00000000	0.0
90	0x00000000	0.0
91	0x00000000	0.0
92	0x00000000	0.0
93	0x00000000	0.0
94	0x00000000	0.0
95	0x00000000	0.0
96	0x3f800000	1.0
97	0x3f800000	1.0
98	0x3f800000	1.0
99	0x3f800000	1.0
100	0x00000000	0.0
101	0x00000000	0.0
102	0x00000000	0.0
103	0x00000000	0.0
104	0x00000000	0.0
105	0x00000000	0.0
106	0x00000000	0.0
107	0x00000000	0.0
108	0x00000000	0.0
109	0x00000000	0.0
110	0x00000000	0.0
111	0x00000000	0.0
112	0x00000000	0.0
113	0x00000000	0.0
114	0x00000000	0.0
115	0x00000000	0.0
116	0x00000000	0.0
117	0x00000000	0.0
118	0x00000000	0.0
119	0x00000000	0.0
120	0x00000000	0.0
121	0x00000000	0.0
122	0x00000000	0.0
123	0x00000000	0.0
124	0x00000000	0.0
125	0x00000000	0.0
126	0x00000000	0.0
127	0x00000000	0.0
128	0x3f800000	1.0
129	0x3f800000	1.0
130	0x3f800000	1.0
131	0x3f800000	1.0
132	0x3f800000	1.0
133	0x00000000	0.0
134	0x00000000	0.0
135	0x00000000	0.0
136	0x00000000	0.0
137	0x00000000	0.0
138	0x00000000	0.0
139	0x00000000	0.0
140	0x00000000	0.0
141	0x00000000	0.0
142	0x00000000	0.0
143	0x00000000	0.0
144	0x00000000	0.0
145	0x00000000	0.0
146	0x00000000	0.0
147	0x00000000	0.0
148	0x00000000	0.0
149	0x00000000	0.0
150	0x00000000	0.0
151	0x00000000	0.0
152	0x00000000	0.0
153	0x00000000	0.0
154	0x00000000	0.0
155	0x00000000	0.0
156	0x00000000	0.0
157	0x00000000	0.0
158	0x00000000	0.0
159	0x00000000	0.0
160	0x3f800000	1.0
161	0x3f800000	1.0
162	0x3f800000	1.0
163	0x3f800000	1.0
164	0x3f800000	1.0
165	0x3f800000	1.0
166	0x00000000	0.0
167	0x00000000	0.0
168	0x00000000	0.0
169	0x00000000	0.0
170	0x00000000	0.0
171	0x00000000	0.0
172	0x00000000	0.0
173	0x00000000	0.0
174	0x00000000	0.0
175	0x00000000	0.0
176	0x00000000	0.0
177	0x00000000	0.0
178	0x00000000	0.0
179	0x00000000	0.0
180	0x00000000	0.0
181	0x00000000	0.0
182	0x00000000	0.0
183	0x00000000	0.0
184	0x00000000	0.0
185	0x00000000	0.0
186	0x00000000	0.0
187	0x00000000	0.0
188	0x00000000	0.0
189	0x00000000	0.0
190	0x00000000	0.0
191	0x00000000	0.0
192	0x3f800000	1.0
193	0x3f800000	1.0
194	0x3f800000	1.0
195	0x3f800000	1.0
196	0x3f800000	1.0
197	0x3f800000	1.0
198	0x3f800000	1.0
199	0x00000000	0.0
200	0x00000000	0.0
201	0x00000000	0.0
202	0x00000000	0.0
203	0x00000000	0.0
204	0x00000000	0.0
205	0x00000000	0.0
206	0x00000000	0.0
207	0x00000000	0.0
208	0x00000000	0.0
209	0x00000000	0.0
210	0x00000000	0.0
211	0x00000000	0.0
212	0x00000000	0.0
213	0x00000000	0.0
214	0x00000000	0.0
215	0x00000000	0.0
216	0x00000000	0.0
217	0x00000000	0.0
218	0x00000000	0.0
219	0x00000000	0.0
220	0x00000000	0.0
221	0x00000000	0.0
222	0x00000000	0.0
223	0x00000000	0.0
224	0x3f800000	1.0
225	0x3f800000	1.0
226	0x3f800000	1.0
227	0x3f800000	1.0
228	0x3f800000	1.0
229	0x3f800000	1.0
230	0x3f800000	1.0
231	0x3f800000	1.0
232	0x00000000	0.0
233	0x00000000	0.0
234	0x00000000	0.0
235	0x00000000	0.0
236	0x00000000	0.0
237	0x00000000	0.0
238	0x00000000	0.0
239	0x00000000	0.0
240	0x00000000	0.0
241	0x00000000	0.0
242	0x00000000	0.0
243	0x00000000	0.0
244	0x00000000	0.0
245	0x00000000	0.0
246	0x00000000	0.0
247	0x00000000	0.0
248	0x00000000	0.0
249	0x00000000	0.0
250	0x00000000	0.0
251	0x00000000	0.0
252	0x00000000	0.0
253	0x00000000	0.0
254	0x00000000	0.0
255	0x00000000	0.0

blocks.0.sa.heads.1.key.weight f4 [16, 64]
0	0x3d2381df	0.039918777
1	0x3e81ab2b	0.25325903
2	0x3e255224	0.16144615
3	0xbd2e6b12	-0.04258258
4	0xbcfda902	-0.030964378
5	0x3e817fcc	0.25292814
6	0x3d34fa17	0.044183817
7	0xbda43e26	-0.080196664
8	0x3d1b5b62	0.037928946
9	0xbdf89a50	-0.12138808
10	0xbe78f7cb	-0.24313276
11	0xbdf777fc	-0.12083432
12	0xbe71364c	-0.23555869
13	0xbea69aa5	-0.3253986
14	0x3e9829e3	0.29719457
15	0xbcf4414a	-0.029816289
16	0xbe518ea2	-0.20464566
17	0xbec3bd9f	-0.38230607
18	0x3e7ef9c6	0.24899969
19	0x3b0d084b	0.0021519836
20	0x3af3c8ad	0.0018599235
21	0xbe137f16	-0.14403948
22	0xbe0a7d1a	-0.13524285
23	0xbe9581f5	-0.29200712
24	0xbe4281be	-0.18994805
25	0xbceb717b	-0.028740635
26	0xbe28daa4	-0.16489655
27	0x3e7a09fc	0.24417871
28	0xbe030c16	-0.12797579
29	0xbcb22688	-0.021746889
30	0xbd9ebfcb	-0.07751425
31	0x3d96646b	0.07343372
32	0x3d993909	0.07481582
33	0xbbc573bf	-0.006025761
34	0x3e194c1d	0.14970441
35	0x3d25fe2d	0.040525604
36	0x3e630b79	0.22172345
37	0xbc96427c	-0.01834225
38	0x3e17704c	0.14788932
39	0xbd3c8f4e	-0.046035103
40	0x3e7b36d8	0.2453264
41	0x3db55dd7	0.08855789
42	0x3d869a41	0.0657239
43	0x3e177cf3	0.14793758
44	0x3e06f05f	0.13177632
45	0xbdc3dac1	-0.09563208
46	0x3d314126	0.04327502
47	0xbcd4d725	-0.025981495
48	0x3daa7bc8	0.08324391
49	0xbd515455	-0.051105816
50	0xbb6653ed	-0.0035145239
51	0x3e24f6a3	0.1610971
52	0xbe3bba36	-0.18332753
53	0x3e015dc0	0.12633419
54	0xbe06ebc2	-0.13175872
55	0x3d1c29eb	0.038125914
56	0xbdddf7e4	-0.10838297
57	0x3e4c0c8e	0.19926664
58	0xbde72ded	-0.112880565
59	0x3e304f39	0.17217721
60	0x3e2dcc80	0.16972542
61	0xbd89974f	-0.06718313
62	0x3e21a86b	0.15786903
63	0xbd8388b4	-0.064225584
64	0xbdf1d436	-0.11808054
65	0xbe0171c1	-0.1264105
66	0xb9ece8d2	-0.00045186892
67	0xbb51f162	-0.0032034745
68	0xbe39787f	-0.18112372
69	0xbe837021	-0.25671485
70	0xbe341a41	-0.1758814
71	0x3dc8674a	0.09785326
72	0x3aebbdd7	0.0017985654
73	0x3d873736	0.066023275
74	0x3dd6b327	0.10483389
75	0xbe452d34	-0.19255525
76	0x3db12eb2	0.086514845
77	0xbd29edb0	-0.041486442
78	0x3dd0374d	0.10166798
79	0x3de33ffc	0.110961884
80	0xbdc12ba4	-0.09432152
81	0xbd33f301	-0.04393292
82	0x3e017490	0.12642121
83	0x3d94bf77	0.072630815
84	0xbbe40426	-0.0069585023
85	0xbc438c1c	-0.01193526
86	0xbbcb99b6	-0.006213392
87	0x3d9ee081	0.077576645
88	0xbd46dd62	-0.04855097
89	0xbdb90ae4	-0.0903528
90	0xbc9e77b5	-0.01934419
91	0x3c86b3c5	0.016443143
92	0x3dc15299	0.094395824
93	0xbe52e2f8	-0.20594394
94	0x3e19b8bf	0.15011881
95	0xbdd8247f	-0.10553836
96	0x3d911134	0.07083359
97	0x3b75080c	0.003738883
98	0x3c8cb1ab	0.017174562
99	0x3cfe6a03	0.03105641
100	0x3ebc12bf	0.36733052
101	0xbe401ed4	-0.1876176
102	0x3e3ebbdd	0.18626352
103	0x3e2a2a2f	0.16617654
104	0x3d250dbc	0.0402963
105	0xbe388ab3	-0.1802166
106	0xbde0b229	-0.10971481
107	0xbd48016f	-0.048829492
108	0x3e6a29f8	0.22867572
109	0x3e93df7b	0.2888144
110	0xbeb0841c	-0.3447579
111	0xbd4bb40b	-0.04973225
112	0x3dacc8b7	0.08436721
113	0xbd86cf70	-0.06582534
114	0xbe0582ce	-0.1303818
115	0x3c34e5d8	0.011041127
116	0x3df1ca3d	0.11806152
117	0xbdd65aa1	-0.10466505
118	0xbaa8b01f	-0.0012869871
119	0xbd14d136	-0.03633233
120	0x3e70a284	0.23499495
121	0xbdcbb844	-0.09947255
122	0x3d8e9731	0.06962431
123	0x3e2a2c25	0.16618402
124	0xbcaee6a9	-0.021350222
125	0x3e21e64d	0.15810509
126	0xbd0b8896	-0.034065805
127	0x3dfcf82f	0.12352025
128	0xbdb1a2a6	-0.08673601
129	0x3e2ec2bd	0.17066474
130	0x3d4f9f57	0.050689068
131	0xbe07b332	-0.13251951
132	0x3d66f344	0.05638434
133	0xbe2633e6	-0.16230735
134	0xbd68561f	-0.056722756
135	0xbe068409	-0.13136305
136	0xbd8fd978	-0.07023901
137	0xbe8cefcc	-0.275267
138	0x3cb849c3	0.02249611
139	0x3d8e6f71	0.069548495
140	0xbcbb9bfb	-0.022901526
141	0x3e175107	0.14777003
142	0x3cf0a03a	0.029373277
143	0xbe212523	-0.15736823
144	0xbe9223ba	-0.28542882
145	0x3e381bc4	0.17979342
146	0x3e84288a	0.2581218
147	0x3dd9872f	0.10621487
148	0xbdd73773	-0.10508623
149	0x3d3fd153	0.046830487
150	0x3d1ad940	0.037804842
151	0xbddc6e4f	-0.10763227
152	0x3e5015d0	0.20320821
153	0x3e26f718	0.16305196
154	0x3d2f966f	0.042868074
155	0x3de6c8f4	0.112687975
156	0xbcedcf6b	-0.029029569
157	0xbe7f145b	-0.24910109
158	0xbd63e099	-0.055634115
159	0xbd89579d	-0.06706164
160	0x3cf301f1	0.029664012
161	0x3d496a45	0.049173612
162	0xbe84c658	-0.25932574
163	0x3e464b69	0.19364704
164	0x3ddd5f4f	0.10809194
165	0xbe4dae03	-0.20085911
166	0xbc643b8a	-0.013930211
167	0xbddc8558	-0.10767621
168	0xbd69bb37	-0.057063308
169	0x3dadf0cc	0.08493194
170	0xbe1ebbc0	-0.15501308
171	0x3ebbeedc	0.36705673
172	0x3e0057bb	0.12533467
173	0x3e70410c	0.23462313
174	0x3dd9caa8	0.10634357
175	0x3d3f7884	0.046745792
176	0x3df2a3fa	0.11847682
177	0xbe11ff29	-0.14257492
178	0x3d9980b9	0.07495255
179	0xbcdc1c62	-0.026869003
180	0x3e260932	0.16214445
181	0xbd653918	-0.055962652
182	0xbe2a2721	-0.16616489
183	0x3e735cb2	0.23765829
184	0x3d5d68ac	0.0540549
185	0x3d8409f1	0.06447209
186	0x3da87b57	0.0822665
187	0xbebbc9e0	-0.36677456
188	0x3e08d353	0.13361864
189	0x3cda6a30	0.026661962
190	0xbe3c9a2f	-0.18418191
191	0x3d3daf38	0.04630968
192	0xbde971d0	-0.11398661
193	0xbe268f08	-0.162655
194	0xbd8400ce	-0.06445466
195	0x3e480bfb	0.1953582
196	0xbdd49d46	-0.1038156
197	0xbe06d42f	-0.13166879
198	0xbd209d86	-0.039212726
199	0xbde78794	-0.11305156
200	0x3e965669	0.293628
201	0x3da1a8dd	0.07893536
202	0xbdaa98ab	-0.083299
203	0xbe368fcb	-0.1782829
204	0x3e55b1b9	0.20868577
205	0xbd859c44	-0.06523946
206	0xbc44ccd4	-0.012011725
207	0xbc18c823	-0.00932506
208	0xbe57fe8f	-0.210932
209	0xbe2f2ae8	-0.17106211
210	0xbe19ada1	-0.1500764
211	0x3d0a50ea	0.033768572
212	0x3d897d2a	0.06713326
213	0x3dadd8c4	0.084886104
214	0xbeceb67d	-0.40373603
215	0x3dced707	0.10099607
216	0x3c0d03a0	0.008606821
217	0xbcc1695c	-0.02360981
218	0x3d8efe6e	0.06982122
219	0xbc7cc5ff	-0.015428065
220	0x3d053311	0.032519404
221	0x3e86aed3	0.26305255
222	0xbca28ce6	-0.019842576
223	0xbbb85272	-0.0056250626
224	0x3de2cfa3	0.1107476
225	0x3d948a94	0.07252994
226	0x3cd01ff0	0.025405854
227	0x3e8cd488	0.27505898
228	0xbd595146	-0.053056024
229	0x3e94f4fa	0.29093152
230	0xba2c391c	-0.0006569789
231	0xbd4b7cf5	-0.049679715
232	0x3db5f86a	0.08885272
233	0x3c940b9a	0.018071938
234	0xbd5eead4	-0.05442317
235	0x3dbf5905	0.09343151
236	0x3cd3e26e	0.025864806
237	0xbe3249a9	-0.17410912
238	0xbe4c9ff9	-0.199829
239	0xbe61e3be	-0.22059533
240	0xbe8df17b	-0.27723297
241	0x3e5ece7d	0.21758457
242	0xbd939f50	-0.07208121
243	0x3db62f3d	0.08895729
244	0x3e96bc93	0.29440746
245	0xbd9b1528	-0.075723946
246	0xbe7d4316	-0.24732623
247	0xbe667328	-0.22504866
248	0xbdf1facb	-0.11815413
249	0x3e752b32	0.23942259
250	0x3d82650c	0.063669294
251	0xbc9b6013	-0.01896671
252	0xbdab0fa1	-0.0835259
253	0xbd7e7f14	-0.06213291
254	0x3c7204de	0.014771668
255	0x3e261880	0.16220284
