model/nokkaew_model.pth (torch, 678373 bytes, 102 tensors)

token_embedding_table.weight f4 [452, 64]
0	0x3f040c08	0.5158086
1	0x3f15ab02	0.5846406
2	0x3f0071b9	0.50173527
3	0x3fa0dd63	1.2567562
4	0xbd0180e2	-0.031617053
5	0xbf14d770	-0.5814123
6	0x3f3f6561	0.74764067
7	0x3fd614aa	1.6725056
8	0xbf63388c	-0.8875816
9	0xbf566e45	-0.8376201
10	0xbe127ac1	-0.1430464
11	0x3faa2649	1.3292934
12	0x3f9460a3	1.1591991
13	0xbe245388	-0.1604749
14	0x3f84442d	1.0333306
15	0x3e39d6ad	0.18148299
16	0x3fdc5209	1.7212535
17	0x4000d9b1	2.0132868
18	0xbf0d0d01	-0.5509797
19	0x3e04ba1d	0.12961622
20	0xbf98a7cb	-1.1926206
21	0xbec64287	-0.3872263
22	0xbf25dd4a	-0.64790785
23	0x3dde1c8a	0.10845287
24	0xbf93c56d	-1.1544625
25	0xbf25a862	-0.64710057
26	0x401bdcbe	2.435348
27	0x3e62d848	0.22152817
28	0xbd20d78e	-0.03926807
29	0xc00d8015	-2.2109425
30	0x3db629e9	0.088947125
31	0xbfd64b11	-1.6741658
32	0xbf910b3e	-1.1331556
33	0x3f0d1083	0.5510332
34	0xbf9afaab	-1.2107748
35	0x3c2509ff	0.010073184
36	0x3f62cd60	0.8859463
37	0x3f804eaf	1.0024012
38	0xc0163dce	-2.3475223
39	0x3eda74f7	0.42667362
40	0xc02cff4b	-2.7030818
41	0x3feca45a	1.8487656
42	0x3de87900	0.11351204
43	0xbb70c4c0	-0.0036738366
44	0xbf8d9015	-1.1059595
45	0xbf988bbf	-1.1917647
46	0x3fa0e147	1.2568749
47	0x3f38b802	0.72155774
48	0xbda4f430	-0.080543876
49	0x4003f284	2.061677
50	0x405975c5	3.397813
51	0x3f7a65bf	0.978115
52	0xbfab3d75	-1.337813
53	0xbe2b09df	-0.16702984
54	0xbf1d49cd	-0.61440736
55	0x3eae039d	0.33987132
56	0xbf2c71e0	-0.6736126
57	0xbdb14565	-0.08655814
58	0xbed3408f	-0.41260192
59	0x3f99d1e4	1.2017179
60	0xbea9de1d	-0.3317727
61	0xbf075e5f	-0.52878374
62	0xbfe71e41	-1.8056108
63	0xbf4be74e	-0.7964982
64	0xbfb78e07	-1.4340218
65	0xbe4f233d	-0.20228286
66	0xbfb42b2d	-1.4075676
67	0xbec9103e	-0.39270204
68	0xbf61a6da	-0.8814522
69	0xbfe1a41b	-1.7628206
70	0xbf921690	-1.1413136
71	0xbe0a2769	-0.13491596
72	0x3f1465a9	0.5796762
73	0x3e2e88ca	0.17044368
74	0xbf1294e4	-0.5725844
75	0x3e979b61	0.29610732
76	0x3f8f7bb4	1.1209626
77	0x3f9f0566	1.2423522
78	0xbe8c90e6	-0.274543
79	0x3f8816ef	1.0631999
80	0xc01c1ac8	-2.4391346
81	0x3eeab1ef	0.45838878
82	0xbf255be0	-0.64593315
83	0x3f9a3605	1.2047735
84	0x3f37f8ab	0.7186381
85	0x3f90f4ee	1.1324747
86	0x3f9dc0a7	1.2324418
87	0xbfdcf9ec	-1.726377
88	0x3fb24e18	1.3930082
89	0x3fb30c6f	1.398817
90	0xbfaa220a	-1.3291638
91	0x3fb521dd	1.4150959
92	0x3fa92134	1.3213258
93	0xbe6fa894	-0.23404151
94	0x3e15853a	0.14601603
95	0xbe10b537	-0.14131628
96	0x3edf438f	0.4360623
97	0x3d5313c8	0.051532537
98	0x3edc7d30	0.4306426
99	0xbff1fe61	-1.8905755
100	0x3fed532b	1.8541006
101	0x3f7729b8	0.9654803
102	0x3ec33998	0.38129878
103	0xbf2307b6	-0.6368364
104	0x3d8729ab	0.065997444
105	0x3eb00389	0.34377697
106	0x3fac4369	1.3458072
107	0x3f26d29b	0.6516511
108	0x3f38636f	0.72026724
109	0xbf2d431d	-0.6768053
110	0xbe1d4072	-0.15356615
111	0xbe1b8f0f	-0.15191291
112	0x3f0bf136	0.54664934
113	0x3fe8f102	1.819855
114	0x3f28e9eb	0.6598193
115	0x3f3e1ff7	0.74267524
116	0xbf8c1faa	-1.0947163
117	0x3f664b2c	0.89958453
118	0xbfadc260	-1.3574944
119	0xbfe1ee57	-1.765086
120	0x3f82be71	1.0214368
121	0x3f4e78c9	0.80653054
122	0x3f9cf867	1.2263306
123	0x3eba3a56	0.36372632
124	0x3e732a70	0.23746657
125	0xbdb2c144	-0.08728269
126	0x3e8f4ce2	0.27988344
127	0x3ea1f12f	0.3162932
128	0x3fa06c5c	1.2533069
129	0xbe8eef23	-0.27916822
130	0xbfaa33e8	-1.329709
131	0x3f7a1105	0.9768222
132	0xc02869d2	-2.6314588
133	0xbf1944b6	-0.5987047
134	0xbf551643	-0.83237094
135	0x3e8763ae	0.26443237
136	0xbe24dd2e	-0.16099998
137	0x3ff1a551	1.8878576
138	0xbedfa243	-0.43678483
139	0x3f28bd89	0.6591421
140	0x3f85a074	1.0439591
141	0x3e8ff4e9	0.2811654
142	0xbfb24aab	-1.3929037
143	0xbf6ac0b4	-0.9170029
144	0x3e950f69	0.2911332
145	0x3f730e4f	0.9494371
146	0x3f9c6f95	1.2221552
147	0x3f08dd16	0.5346235
148	0x3e9977ad	0.29974118
149	0x3e1372f7	0.14399324
150	0xbfc34ca1	-1.525776
151	0x3db54257	0.08850544
152	0x3fa3531f	1.2759742
153	0x3f4fcfc0	0.81176376
154	0x3eaacaf1	0.33357957
155	0xbfb07eab	-1.3788656
156	0xbfa1d53b	-1.2643198
157	0xbcaa45a8	-0.020785168
158	0xbe0ffa44	-0.14060313
159	0xbeae98a1	-0.34100822
160	0xbf057115	-0.52125674
161	0xbf8890dc	-1.0669208
162	0xbf0284b9	-0.5098377
163	0xbe533723	-0.20626502
164	0x3f949942	1.160927
165	0xbfa7fa39	-1.3123237
166	0x3fb44e0a	1.4086316
167	0x3f04f8af	0.5194196
168	0xbfc8fae4	-1.5701566
169	0xbf46af69	-0.77611405
170	0xbf52034e	-0.8203629
171	0xbe5b1dcf	-0.2139809
172	0x3f9566c2	1.1671984
173	0x3ffd845b	1.9806017
174	0xbe0b97b7	-0.13632093
175	0x400e9291	2.2276957
176	0xbfd703e3	-1.6798061
177	0xbe3c5f48	-0.18395722
178	0xbebe9f78	-0.3723104
179	0x3d46c15a	0.04852424
180	0xbf9ffaae	-1.2498376
181	0x3e7cc79d	0.24685521
182	0xbf4beec7	-0.7966122
183	0xbf78d3c3	-0.9719812
184	0x3fd7c037	1.6855534
185	0x3e1934d5	0.1496156
186	0xbf04c885	-0.5186847
187	0xbf10e61c	-0.5660112
188	0x3fec66c7	1.8468865
189	0xbf2686f9	-0.650497
190	0x400170a0	2.022499
191	0xbc89c274	-0.016816355
192	0x3e269431	0.16267468
193	0x3fba06e2	1.453335
194	0x3f18c8ce	0.59681404
195	0x3de6152f	0.11234509
196	0x3f1851a0	0.5949955
197	0xbe961d0a	-0.2931903
198	0x3f8b8bdf	1.090206
199	0xbe4731be	-0.19452569
200	0xbfd9b849	-1.7009364
201	0xbf138780	-0.5762863
202	0xbfa700e6	-1.3047149
203	0x3f8729a7	1.0559586
204	0xbfbcbfcd	-1.4746033
205	0xbf05f17e	-0.5232161
206	0x3fd0205a	1.6259873
207	0xbb28b864	-0.002574467
208	0x3f6c7821	0.923708
209	0x401a79ae	2.4136767
210	0xc00e1efd	-2.2206414
211	0x401005ba	2.2503495
212	0xc00c2c90	-2.1902199
213	0xbe87c06a	-0.26513988
214	0xbef6ef12	-0.4822927
215	0xbf837d30	-1.0272579
216	0xbf591999	-0.84804684
217	0x3f85403d	1.0410229
218	0x3f15fc19	0.58587795
219	0xbe6b049e	-0.2295098
220	0x40280d86	2.6258254
221	0xbe951564	-0.29117882
222	0xbfc2d5db	-1.5221514
223	0xbf678454	-0.9043629
224	0x4000d3e3	2.0129325
225	0x3fecba1a	1.8494294
226	0x3e7f6cf1	0.24943902
227	0xbf426a89	-0.7594381
228	0x3e93d714	0.2887503
229	0x3ed20128	0.41016507
230	0xbedd71d3	-0.43250903
231	0x3f8530a7	1.0405473
232	0x3f01bd55	0.5067952
233	0xbf23fef2	-0.6406089
234	0x3eb59a1d	0.35469142
235	0x3f2ae036	0.6674837
236	0xbe5d6dd1	-0.21623923
237	0xbd23575c	-0.039878234
238	0x3eb4cba6	0.3531162
239	0x3d458f83	0.048232567
240	0xbd4983db	-0.049198013
241	0x3e79d0df	0.24396084
242	0x3f9b97c6	1.2155693
243	0xbfb20677	-1.3908223
244	0xbf46a036	-0.7758821
245	0x3f33286c	0.69983554
246	0xbe9bccc0	-0.3042965
247	0xbd7f1fd2	-0.062286206
248	0xbc88e9fa	-0.016713131
249	0x3e442734	0.1915558
250	0x3f31042e	0.69147
251	0x3f33aef0	0.7018881
252	0xbf9748fc	-1.1819148
253	0x3cc8a08e	0.024490621
254	0x3fde599c	1.7371097
255	0xbf2beb16	-0.6715559

position_embedding_table.weight f4 [32, 64]
0	0x3e8994ba	0.26871282
1	0x4025378a	2.5815148
2	0x3f867b30	1.0506344
3	0x3d7b4f33	0.061354827
4	0x3de48d89	0.11159808
5	0xbfbfb87e	-1.4978178
6	0x3eb9cb3b	0.36287865
7	0x3f9ade09	1.209901
8	0x3e944c96	0.2896468
9	0xbfb9ac6e	-1.4505746
10	0xbfc191a1	-1.5122567
11	0xbfaa2690	-1.3293018
12	0x3ee99519	0.45621565
13	0x3f5a8f4c	0.85374904
14	0xbf655143	-0.8957712
15	0xbe70c1c8	-0.23511422
16	0x3eaf68fa	0.34259778
17	0x3eccd76e	0.4000811
18	0xbfbfff7d	-1.4999844
19	0xbf8c6a83	-1.0970005
20	0x3df0bc78	0.117546976
21	0x3eb39213	0.35072383
22	0xc00c1f8f	-2.1894262
23	0x3d8517c1	0.06498671
24	0xbe4ede83	-0.20202069
25	0x3c0578df	0.008146494
26	0xbf196b3a	-0.5992924
27	0xbeee8a8d	-0.4659008
28	0x3f38e530	0.7222471
29	0x3f000475	0.500068
30	0x3f590ccf	0.8478517
31	0xbf2216da	-0.6331612
32	0x3fe40352	1.7813513
33	0x3d79c7b2	0.06098146
34	0xbecab525	-0.39591327
35	0xbfcdf325	-1.6089827
36	0xbf23f7a5	-0.6404975
37	0xbf1e2227	-0.6177086
38	0xbf545467	-0.8294129
39	0x3efb3795	0.49065843
40	0x3f22c26f	0.6357793
41	0x3e9a616c	0.30152452
42	0xbfc9057e	-1.5704801
43	0x3f3eae36	0.74484575
44	0x3f9923ae	1.1964014
45	0x3eb98a04	0.3623811
46	0xbfce8ffd	-1.6137692
47	0xbfbf0054	-1.4921975
48	0x3f7428b8	0.9537463
49	0xbdad3fc2	-0.084594265
50	0x3f13ffdc	0.57812285
51	0xbecfc238	-0.40577865
52	0xbf4a4eaa	-0.7902628
53	0x3d90b614	0.07065979
54	0x3e8a29cc	0.26985013
55	0xbf6f9122	-0.9358083
56	0xbf4b3bfa	-0.7938839
57	0x3cc20987	0.023686184
58	0xbf538977	-0.8263163
59	0xbfc3e090	-1.5302906
60	0x3e1d52d7	0.15363632
61	0xbf043465	-0.5164245
62	0x3df55a79	0.11980147
63	0x3d81609d	0.06317256
64	0xbf7b87cd	-0.9825409
65	0x3f7a9a93	0.9789211
66	0xbf7a594a	-0.97792494
67	0xbddc9136	-0.10769884
68	0xbf3e39eb	-0.74307126
69	0xbfb99a2e	-1.4500177
70	0x3ef9305e	0.48669714
71	0xbe16567a	-0.14681426
72	0x3ce1752f	0.027521698
73	0xbf3643a5	-0.7119697
74	0x3f95a248	1.1690149
75	0x3f1f6969	0.6227022
76	0xbf247d78	-0.6425395
77	0x3f820406	1.0157478
78	0x3d069cc6	0.032864355
79	0xbc834110	-0.016022235
80	0xbe3d879e	-0.18508765
81	0xbf66fb75	-0.9022744
82	0x3f2c7d42	0.6737863
83	0xbfdc4234	-1.7207704
84	0xbff09ba2	-1.8797495
85	0x3f514750	0.8174944
86	0x3f72921a	0.94754183
87	0xbfcb8016	-1.5898464
88	0x3f885942	1.0652239
89	0xbe9fa867	-0.31183168
90	0xbf04cfcc	-0.5187957
91	0xbff52528	-1.9151964
92	0x3eb2d1b2	0.3492561
93	0x3f083e60	0.53220177
94	0x3ca4c7eb	0.02011486
95	0x3f081885	0.53162414
96	0x401204b2	2.2815366
97	0xbe17076e	-0.14748928
98	0xbf9f49a3	-1.2444347
99	0x3e9b5566	0.3033859
100	0x3fba48e2	1.4553492
101	0xbf872a92	-1.0559866
102	0xbf8d5a13	-1.1043113
103	0x3f6fdffd	0.93701154
104	0x403bbc96	2.9333854
105	0x3e809d24	0.2511989
106	0x3f76422f	0.9619474
107	0x3fa40fda	1.2817338
108	0x3f44347f	0.766426
109	0x3f214b02	0.6300508
110	0x400e9d70	2.2283592
111	0x3d43eeaf	0.04783505
112	0xbf8f07f6	-1.1174304
113	0x3f24b9c0	0.6434593
114	0x3f422371	0.7583533
115	0x40030491	2.0471537
116	0x3eda2fa8	0.42614484
117	0x3ff8ee30	1.9447689
118	0x3f547683	0.82993335
119	0x3d40ffcc	0.047118947
120	0xbec565c1	-0.38554195
121	0x3f8612b0	1.0474453
122	0xbdf0a424	-0.11750057
123	0x3f8d7cd9	1.1053725
124	0xbeac7f2e	-0.3369078
125	0xbfa0911d	-1.2544285
126	0xbe359a41	-0.17734624
127	0x3f03831d	0.5137194
128	0x3e81bb32	0.2533813
129	0x3e49974c	0.19686621
130	0x3ef04093	0.46924266
131	0xbe86a080	-0.26294327
132	0xbea9dcf9	-0.331764
133	0xbf7ae452	-0.9800464
134	0x3f52e24e	0.82376564
135	0x3fb717ac	1.4304099
136	0xbf19e2ca	-0.6011168
137	0xbfd79f6e	-1.6845529
138	0x3e427e91	0.18993594
139	0xbf82d98d	-1.0222641
140	0x3f9abca2	1.2088816
141	0x3fb41ce3	1.4071316
142	0x3e363386	0.17793092
143	0x3ffeb0b2	1.9897673
144	0xbf7824b0	-0.9693098
145	0xbe10c108	-0.14136136
146	0xbecb3592	-0.39689308
147	0x3dbb4049	0.09143121
148	0x3f012f45	0.5046275
149	0xbfc69152	-1.5513098
150	0xbf577c09	-0.8417364
151	0xbe4f23d2	-0.20228508
152	0x3e6eabd3	0.23307733
153	0x3f7ff720	0.9998646
154	0xbeab136c	-0.33413255
155	0xbd40b7e8	-0.047050387
156	0xbe2812ef	-0.16413473
157	0x3eeb142a	0.4591382
158	0x3fa5ed74	1.296309
159	0x3f5713af	0.8401441
160	0x3febb5d4	1.8414865
161	0x3fd06036	1.6279361
162	0x3f77eacc	0.96842647
163	0x3d53889e	0.05164396
164	0x3ee2d4db	0.4430302
165	0x3ecd9791	0.40154698
166	0xbfa22899	-1.266864
167	0x3f95e72f	1.1711177
168	0xbf84958a	-1.0358136
169	0xbf8dbfbd	-1.1074139
170	0xbf4ea9aa	-0.80727637
171	0x3de4d23f	0.11172914
172	0xbde73d0f	-0.11290943
173	0x3f021a1d	0.50821096
174	0x3f44d7b6	0.7689165
175	0xbf610770	-0.87901974
176	0x3e0cf24f	0.13764308
177	0xbf3c9117	-0.7365889
178	0xbe5ae025	-0.21374567
179	0xbf821140	-1.0161514
180	0xbc1b3e42	-0.009475293
181	0x3f6d1cd6	0.92622125
182	0x3f02a84f	0.5103807
183	0x3e9a191a	0.30097276
184	0x3e45b273	0.19306354
185	0xbf4f8d3b	-0.81074876
186	0xbee4de6f	-0.44700953
187	0xbbd92a90	-0.0066273883
188	0x3f5b09c2	0.85561764
189	0x3dc0d97c	0.09416482
190	0x3f0c04e5	0.5469497
191	0x3c680816	0.014162084
192	0xbdd6bc4e	-0.10485135
193	0x3ef9eaba	0.48811895
194	0xbe855d64	-0.26047814
195	0x3f779959	0.96718365
196	0x3f6089d8	0.8771033
197	0xbf8f7b69	-1.1209537
198	0x3f18762f	0.59555334
199	0xbf406147	-0.75148433
200	0x3fc4cba9	1.5374652
201	0xbf2c5bf5	-0.67327815
202	0xbfb3a20a	-1.4033825
203	0xbe8d4ff0	-0.2760005
204	0xbdb2583f	-0.08708238
205	0x3f1ad2b5	0.60477763
206	0xbf4b327a	-0.79373896
207	0x3f8041d5	1.002009
208	0xbefd2f1e	-0.4945001
209	0x3f01a0e1	0.50636107
210	0xbfbf1c87	-1.4930581
211	0xbe9f2e09	-0.3108981
212	0x3e0459bb	0.12924854
213	0xbf5c9a11	-0.86172587
214	0x3e845ad4	0.25850546
215	0x3ea44fd9	0.3209217
216	0xbdafcfe8	-0.08584577
217	0xbf224762	-0.6339017
218	0xbe86859e	-0.26273817
219	0xbff039a3	-1.8767589
220	0xbff96f34	-1.9487062
221	0x3e444a94	0.19169074
222	0xbd7d7dbd	-0.06188749
223	0x3f483986	0.78212774
224	0x3f9541c6	1.1660697
225	0xbfa01389	-1.2505962
226	0x3f36d328	0.7141595
227	0x3d85c5a8	0.065318406
228	0xbee7a916	-0.4524619
229	0x3e139a17	0.1441425
230	0xbee0ae99	-0.43883207
231	0xbdea7a64	-0.114491254
232	0x3fc54d92	1.5414298
233	0xbf0f6436	-0.56012285
234	0xbf735ac3	-0.95060366
235	0x3dfa5df0	0.122249484
236	0x3e9b28cd	0.30304566
237	0x3f365c11	0.7123423
238	0xbf6d92c3	-0.92802066
239	0xbe350647	-0.17678176
240	0xbe3fcc3a	-0.1873025
241	0xbeb9c3d7	-0.36282226
242	0xbc4dc7c5	-0.012559836
243	0xbe0432e8	-0.12910044
244	0x3ee5f3f9	0.449127
245	0xbf1ecf38	-0.6203494
246	0xbf9d7868	-1.230237
247	0x3ddf751d	0.109110095
248	0x3f15d55b	0.5852868
249	0x3f119927	0.56874317
250	0xbf0386a8	-0.51377344
251	0x3fc2d6c5	1.5221792
252	0x3eafa13a	0.34302694
253	0xbe3dfc23	-0.18553214
254	0xbf35e222	-0.71048176
255	0x3eb61d2a	0.35569125

blocks.0.sa.heads.0.tril f4 [32, 32]
0	0x3f800000	1.0
1	0x00000000	0.0
2	0x00000000	0.0
3	0x00000000	0.0
4	0x00000000	0.0
5	0x00000000	0.0
6	0x00000000	0.0
7	0x00000000	0.0
8	0x00000000	0.0
9	0x00000000	0.0
10	0x00000000	0.0
11	0x00000000	0.0
12	0x00000000	0.0
13	0x00000000	0.0
14	0x00000000	0.0
15	0x00000000	0.0
16	0x00000000	0.0
17	0x00000000	0.0
18	0x00000000	0.0
19	0x00000000	0.0
20	0x00000000	0.0
21	0x00000000	0.0
22	0x00000000	0.0
23	0x00000000	0.0
24	0x00000000	0.0
25	0x00000000	0.0
26	0x00000000	0.0
27	0x00000000	0.0
28	0x00000000	0.0
29	0x00000000	0.0
30	0x00000000	0.0
31	0x00000000	0.0
32	0x3f800000	1.0
33	0x3f800000	1.0
34	0x00000000	0.0
35	0x00000000	0.0
36	0x00000000	0.0
37	0x00000000	0.0
38	0x00000000	0.0
39	0x00000000	0.0
40	0x00000000	0.0
41	0x00000000	0.0
42	0x00000000	0.0
43	0x00000000	0.0
44	0x00000000	0.0
45	0x00000000	0.0
46	0x00000000	0.0
47	0x00000000	0.0
48	0x00000000	0.0
49	0x00000000	0.0
50	0x00000000	0.0
51	0x00000000	0.0
52	0x00000000	0.0
53	0x00000000	0.0
54	0x00000000	0.0
55	0x00000000	0.0
56	0x00000000	0.0
57	0x00000000	0.0
58	0x00000000	0.0
59	0x00000000	0.0
60	0x00000000	0.0
61	0x00000000	0.0
62	0x00000000	0.0
63	0x00000000	0.0
64	0x3f800000	1.0
65	0x3f800000	1.0
66	0x3f800000	1.0
67	0x00000000	0.0
68	0x00000000	0.0
69	0x00000000	0.0
70	0x00000000	0.0
71	0x00000000	0.0
72	0x00000000	0.0
73	0x00000000	0.0
74	0x00000000	0.0
75	0x00000000	0.0
76	0x00000000	0.0
77	0x00000000	0.0
78	0x00000000	0.0
79	0x00000000	0.0
80	0x00000000	0.0
81	0x00000000	0.0
82	0x00000000	0.0
83	0x00000000	0.0
84	0x00000000	0.0
85	0x00000000	0.0
86	0x00000000	0.0
87	0x00000000	0.0
88	0x00000000	0.0
89	0x00000000	0.0
90	0x00000000	0.0
91	0x00000000	0.0
92	0x00000000	0.0
93	0x00000000	0.0
94	0x00000000	0.0
95	0x00000000	0.0
96	0x3f800000	1.0
97	0x3f800000	1.0
98	0x3f800000	1.0
99	0x3f800000	1.0
100	0x00000000	0.0
101	0x00000000	0.0
102	0x00000000	0.0
103	0x00000000	0.0
104	0x00000000	0.0
105	0x00000000	0.0
106	0x00000000	0.0
107	0x00000000	0.0
108	0x00000000	0.0
109	0x00000000	0.0
110	0x00000000	0.0
111	0x00000000	0.0
112	0x00000000	0.0
113	0x00000000	0.0
114	0x00000000	0.0
115	0x00000000	0.0
116	0x00000000	0.0
117	0x00000000	0.0
118	0x00000000	0.0
119	0x00000000	0.0
120	0x00000000	0.0
121	0x00000000	0.0
122	0x00000000	0.0
123	0x00000000	0.0
124	0x00000000	0.0
125	0x00000000	0.0
126	0x00000000	0.0
127	0x00000000	0.0
128	0x3f800000	1.0
129	0x3f800000	1.0
130	0x3f800000	1.0
131	0x3f800000	1.0
132	0x3f800000	1.0
133	0x00000000	0.0
134	0x00000000	0.0
135	0x00000000	0.0
136	0x00000000	0.0
137	0x00000000	0.0
138	0x00000000	0.0
139	0x00000000	0.0
140	0x00000000	0.0
141	0x00000000	0.0
142	0x00000000	0.0
143	0x00000000	0.0
144	0x00000000	0.0
145	0x00000000	0.0
146	0x00000000	0.0
147	0x00000000	0.0
148	0x00000000	0.0
149	0x00000000	0.0
150	0x00000000	0.0
151	0x00000000	0.0
152	0x00000000	0.0
153	0x00000000	0.0
154	0x00000000	0.0
155	0x00000000	0.0
156	0x00000000	0.0
157	0x00000000	0.0
158	0x00000000	0.0
159	0x00000000	0.0
160	0x3f800000	1.0
161	0x3f800000	1.0
162	0x3f800000	1.0
163	0x3f800000	1.0
164	0x3f800000	1.0
165	0x3f800000	1.0
166	0x00000000	0.0
167	0x00000000	0.0
168	0x00000000	0.0
169	0x00000000	0.0
170	0x00000000	0.0
171	0x00000000	0.0
172	0x00000000	0.0
173	0x00000000	0.0
174	0x00000000	0.0
175	0x00000000	0.0
176	0x00000000	0.0
177	0x00000000	0.0
178	0x00000000	0.0
179	0x00000000	0.0
180	0x00000000	0.0
181	0x00000000	0.0
182	0x00000000	0.0
183	0x00000000	0.0
184	0x00000000	0.0
185	0x00000000	0.0
186	0x00000000	0.0
187	0x00000000	0.0
188	0x00000000	0.0
189	0x00000000	0.0
190	0x00000000	0.0
191	0x00000000	0.0
192	0x3f800000	1.0
193	0x3f800000	1.0
194	0x3f800000	1.0
195	0x3f800000	1.0
196	0x3f800000	1.0
197	0x3f800000	1.0
198	0x3f800000	1.0
199	0x00000000	0.0
200	0x00000000	0.0
201	0x00000000	0.0
202	0x00000000	0.0
203	0x00000000	0.0
204	0x00000000	0.0
205	0x00000000	0.0
206	0x00000000	0.0
207	0x00000000	0.0
208	0x00000000	0.0
209	0x00000000	0.0
210	0x00000000	0.0
211	0x00000000	0.0
212	0x00000000	0.0
213	0x00000000	0.0
214	0x00000000	0.0
215	0x00000000	0.0
216	0x00000000	0.0
217	0x00000000	0.0
218	0x00000000	0.0
219	0x00000000	0.0
220	0x00000000	0.0
221	0x00000000	0.0
222	0x00000000	0.0
223	0x00000000	0.0
224	0x3f800000	1.0
225	0x3f800000	1.0
226	0x3f800000	1.0
227	0x3f800000	1.0
228	0x3f800000	1.0
229	0x3f800000	1.0
230	0x3f800000	1.0
231	0x3f800000	1.0
232	0x00000000	0.0
233	0x00000000	0.0
234	0x00000000	0.0
235	0x00000000	0.0
236	0x00000000	0.0
237	0x00000000	0.0
238	0x00000000	0.0
239	0x00000000	0.0
240	0x00000000	0.0
241	0x00000000	0.0
242	0x00000000	0.0
243	0x00000000	0.0
244	0x00000000	0.0
245	0x00000000	0.0
246	0x00000000	0.0
247	0x00000000	0.0
248	0x00000000	0.0
249	0x00000000	0.0
250	0x00000000	0.0
251	0x00000000	0.0
252	0x00000000	0.0
253	0x00000000	0.0
254	0x00000000	0.0
255	0x00000000	0.0

blocks.0.sa.heads.0.key.weight f4 [16, 64]
0	0xbd096fbf	-0.033553835
1	0x3e4b1f47	0.1983615
2	0xbea93124	-0.33045304
3	0x3da22482	0.079171196
4	0xbc88481d	-0.016635949
5	0x3e3c4f94	0.18389732
6	0xbe1c1610	-0.15242791
7	0x3d4b821f	0.04968464
8	0x3c54e147	0.012993163
9	0xbe15e3f5	-0.1463774
10	0xbe4ad45c	-0.19807571
11	0x3e2c5b44	0.1683169
12	0x3e02d319	0.1277584
13	0x3daaaa02	0.08333208
14	0xbda04a5b	-0.07826682
15	0x3e3196b0	0.17342639
16	0x3e4ec4fd	0.20192333
17	0x3dd0f350	0.10202658
18	0xbc448d8d	-0.011996639
19	0xbe4b9258	-0.19880044
20	0x3dd71d8d	0.10503683
21	0x3dd3af5d	0.10336182
22	0x3d2ef87b	0.04271744
23	0xbe87a54e	-0.26493305
24	0x3e155b74	0.14585668
25	0x3e6ffb89	0.23435797
26	0x3db72187	0.08941942
27	0x3dd8b185	0.10580734
28	0xbd612686	-0.05496838
29	0xbd396cdb	-0.04526983
30	0xbddb91c6	-0.107211635
31	0xbde4e999	-0.11177368
32	0xbe62c2f7	-0.22144686
33	0xbbe2a26d	-0.0069163353
34	0xbcff0e83	-0.03113485
35	0x3e082295	0.13294442
36	0xbdc9a785	-0.09846405
37	0xbe23c040	-0.15991306
38	0x3df277a5	0.11839227
39	0xbd3a7460	-0.04552114
40	0xbe9737d6	-0.29534787
41	0x3d3a47ac	0.045478508
42	0xbe4d79ca	-0.2006599
43	0x3e945337	0.28969738
44	0xbd10113e	-0.035172693
45	0xbe1f0a10	-0.15531182
46	0x3df2f670	0.118634105
47	0xbdc64c0b	-0.09682473
48	0xbe46a5fe	-0.19399258
49	0x3e06ca0a	0.1316301
50	0x3e0931e2	0.13397935
51	0x3cb79a3e	0.022412416
52	0x3d07838b	0.033084434
53	0xbd052d0f	-0.032513674
54	0xbdd908e8	-0.10597402
55	0x3e053734	0.1300934
56	0x3e32787b	0.17428772
57	0xbdb5639a	-0.08856888
58	0x3e1d2d2b	0.15349261
59	0x3e4738b0	0.19455218
60	0x3cd1233e	0.0255295
61	0xbdf8d607	-0.121501975
62	0xbe9bb78f	-0.30413482
63	0xbd5070c1	-0.05088878
64	0x3e4bc8fe	0.19900891
65	0xbe32ce14	-0.17461425
66	0x3cf93b6a	0.030423839
67	0x3d96b153	0.07358041
68	0x3dfb2e36	0.122646734
69	0xbe1cb792	-0.15304402
70	0x3cb41278	0.021981463
71	0xbdf465ce	-0.1193348
72	0xbe860e83	-0.26182947
73	0x3e0db2b0	0.13837695
74	0x3e37e58f	0.17958663
75	0x3d2a7eec	0.04162495
76	0xbe13a642	-0.14418891
77	0xbdc43ba0	-0.09581685
78	0xbcaa1bc6	-0.020765197
79	0x3dee2d2e	0.11629711
80	0x3e3695e1	0.17830612
81	0xbd74cea6	-0.059767388
82	0x3e188c26	0.14897212
83	0x3da1e8e8	0.079057515
84	0xbd828f3d	-0.06374977
85	0xbd736242	-0.059419878
86	0xbdd8b337	-0.105810575
87	0xbdd2b3c5	-0.102881946
88	0xbdee2e7e	-0.116299614
89	0xbcb6c1be	-0.02230918
90	0x3e96fa6e	0.29487938
91	0xbe5b3aab	-0.21409099
92	0xbccdaa9b	-0.025105765
93	0xbe1a854e	-0.15089914
94	0xbe447328	-0.19184554
95	0x3d5b8a8d	0.05359893
96	0xbeb2f87f	-0.34955212
97	0xbdbe58c9	-0.09294278
98	0x3e044c5d	0.12919755
99	0x3e01f60c	0.12691516
100	0xbebafe36	-0.36522073
101	0x3e22131b	0.158276
102	0x3d8aa563	0.06769826
103	0xbc85be66	-0.01632614
104	0xbda0d228	-0.07852584
105	0x3a857728	0.0010182606
106	0xbbc79744	-0.0060910303
107	0xbd88d851	-0.06681884
108	0x3e09ef50	0.13470197
109	0xbe87d28c	-0.26527822
110	0x3e2b285f	0.16714619
111	0x3e1dced5	0.15410931
112	0x3d086b53	0.033305477
113	0x3c794596	0.0152143445
114	0xbe542839	-0.20718469
115	0x3c5c4f57	0.0134466505
116	0x3e06520c	0.13117236
117	0xbd3ed349	-0.046588216
118	0x3e24d24e	0.1609585
119	0xbcf20eb9	-0.029548036
120	0x3d82f4ab	0.06394323
121	0xbdbceca2	-0.092248216
122	0xbd8be27f	-0.0683031
123	0x3dc5cfbd	0.096587636
124	0xbdf9c84a	-0.12196405
125	0x3e3af90b	0.18259065
126	0x3d3a8755	0.04553922
127	0x3cbf01c2	0.023316268
128	0x3967aaaa	0.00022093454
129	0xbdd46078	-0.103699625
130	0x3ddcd6cc	0.10783157
131	0x3db087f1	0.08619679
132	0x3dc3d5fa	0.09562297
133	0x3e24b25d	0.16083665
134	0x3cd4028e	0.025880124
135	0xbcbb716c	-0.022881232
136	0xbe869582	-0.2628594
137	0x3d403e2b	0.046934288
138	0xbd588154	-0.052857712
139	0x3db62077	0.08892911
140	0xbd38d38e	-0.04512363
141	0x3c646c78	0.013941877
142	0x3e06e710	0.13174081
143	0x3cf39834	0.029735662
144	0x3e106b2d	0.14103384
145	0x3d86df67	0.06585579
146	0xbea44fee	-0.32092232
147	0x3dc05ec4	0.09393075
148	0xbe8d668d	-0.27617303
149	0xbe8191ae	-0.25306457
150	0xbd9c1a25	-0.07622174
151	0x3e407f84	0.18798643
152	0xbd532307	-0.051547077
153	0xbe86e39e	-0.26345533
154	0x3dd3aca3	0.10335662
155	0xbe30f0a4	-0.17279297
156	0x3e87d49b	0.26529393
157	0xbc4c6031	-0.012474106
158	0xbddd6f85	-0.10812286
159	0x3e9c8595	0.30570665
160	0x3e8f976c	0.28045213
161	0xbb2fb61f	-0.0026811433
162	0x3dcd8a58	0.100361526
163	0x3cd6de70	0.026229113
164	0x3d9e2fce	0.07723962
165	0xbe8b784e	-0.27240223
166	0x3e1e5329	0.1546141
167	0x3e14daa2	0.14536527
168	0x3d98095c	0.0742366
169	0xbe3ebcd4	-0.1862672
170	0x3e7fe83f	0.24990939
171	0x3d968e4e	0.07351361
172	0x3d153503	0.03642751
173	0x3e92fd16	0.28708714
174	0xbd971ba4	-0.07378319
175	0xbecfacdb	-0.40561566
176	0x3c912478	0.017717585
177	0xbd604caf	-0.05476063
178	0x3e83ad6c	0.25718248
179	0x3e2c229c	0.16810077
180	0xbe2c054e	-0.16798899
181	0xbd799872	-0.0609364
182	0x3cfdb038	0.030967817
183	0x3cb84c1b	0.022497227
184	0x3df7051e	0.12061523
185	0xbe03c969	-0.128698
186	0x3d1e9d66	0.038724326
187	0xbcf99965	-0.030468652
188	0xbd857a0d	-0.0651742
189	0xbd342cd1	-0.043988053
190	0x3e01f2b1	0.12690236
191	0xbd63c824	-0.05561079
192	0x3c518edd	0.012790409
193	0xbe1fdb76	-0.15611061
194	0x3e23aaed	0.15983172
195	0xbd123a07	-0.03569987
196	0x3e6385ba	0.22218981
197	0xbbb5c8f7	-0.0055476385
198	0x3c8cd8ac	0.017193161
199	0x3e8f46bd	0.27983657
200	0x3c97f9f8	0.018551812
201	0xbe02c3f0	-0.12770057
202	0x3e1db12d	0.15399618
203	0x3cc1dee1	0.023665847
204	0x3e40a34b	0.18812291
205	0xbe5c66b6	-0.21523556
206	0xbcf7c74d	-0.030246401
207	0xbe80426e	-0.25050682
208	0x3d882593	0.06647792
209	0x3bcc785d	0.0062399344
210	0x3cc98dca	0.024603743
211	0x3d9ed6b9	0.07755799
212	0x3d5bdcec	0.053677484
213	0x3d14b330	0.0363037
214	0xbe0813d1	-0.1328881
215	0x3d23a68d	0.039953757
216	0xbde01bfc	-0.109428376
217	0xbe85d679	-0.26140192
218	0xbcc6da4d	-0.024274016
219	0x3e10816d	0.14111872
220	0xbd4ae736	-0.049536906
221	0xbda5c378	-0.08093923
222	0xbeaefa55	-0.34175363
223	0xbe80b3a7	-0.25137064
224	0x3d1a84df	0.037724372
225	0x3db956c2	0.09049751
226	0xbdf8616c	-0.12127957
227	0x3d5bd156	0.053666435
228	0xbd9078f4	-0.0705432
229	0x3e0dbbae	0.13841125
230	0x3be4fa69	0.006987859
231	0x3e325e81	0.17418863
232	0x3e2183b4	0.15772897
233	0xbe58b4a7	-0.21162663
234	0x3e1fbdb2	0.15599707
235	0xbe52292c	-0.20523518
236	0xbdf7c9e4	-0.120990545
237	0x3ca1b4ea	0.019739587
238	0x3d06282b	0.03275315
239	0x3e3dfe97	0.1855415
240	0x3e33137f	0.17487906
241	0xbc9f0b03	-0.01941443
242	0x3ce07bd7	0.027402801
243	0xbd4861e7	-0.048921492
244	0xbbe6e2a8	-0.0070460625
245	0xbd3bca05	-0.045846958
246	0x3e25f922	0.16208318
247	0x3ed0328e	0.4066357
248	0xbdc44a7d	-0.0958452
249	0xbc63c0fc	-0.0139009915
250	0x3d708895	0.058724005
251	0xbc42daed	-0.011893016
252	0xbc74c8e4	-0.014940474
253	0xbe506869	-0.2035233
254	0x3d801b97	0.06255262
255	0xbe15032c	-0.14551991

blocks.0.sa.heads.0.query.weight f4 [16, 64]
0	0xbdc20036	-0.094726965
1	0x3e7b7fbc	0.24560446
2	0x3dda3ecf	0.10656511
3	0x3b802792	0.003910967
4	0xbe6b1362	-0.22956613
5	0x3e2ed57a	0.17073622
6	0xbb4c4009	-0.0031166098
7	0x3a6f9119	0.00091387477
8	0xbe2968e4	-0.16543919
9	0xbe58180a	-0.2110292
10	0x3da75cac	0.08171973
11	0xbce1143c	-0.027475469
12	0x3cd961c4	0.026535876
13	0x3e2d0fc2	0.16900542
14	0xbe7e4826	-0.2483221
15	0xbd3e647c	-0.046482548
16	0x3e3a95aa	0.18221155
17	0x3de41720	0.11137223
18	0x3e567e4d	0.20946617
19	0xbea4f820	-0.32220554
20	0xbda76d9f	-0.081752054
21	0x3e8b2929	0.2717984
22	0xbd592e7c	-0.053022847
23	0x3dc7133e	0.09720467
24	0xbe49efde	-0.19720408
25	0xbe191af2	-0.14951685
26	0x3e8af72b	0.271417
27	0xbe05f428	-0.1308142
28	0x3ca74a9d	0.02042132
29	0xbe0f38e1	-0.13986541
30	0x3c8c7ed3	0.017150318
31	0x3ca0e97a	0.01964258
32	0xbd131d49	-0.0359166
33	0x3e02c356	0.12769827
34	0xbcbcb352	-0.023034725
35	0x3e17892d	0.14798422
36	0xbda7e829	-0.08198578
37	0xbc595360	-0.013264507
38	0xbdcb97b9	-0.09941048
39	0x3e338660	0.17531729
40	0xbc4a5c6e	-0.0123511385
41	0x3d48b361	0.048999194
42	0xbdd73f26	-0.105100915
43	0xbcecd597	-0.028910441
44	0xbcbec167	-0.02328558
45	0x3e4be553	0.19911699
46	0xbe1d6308	-0.15369809
47	0x3e05f740	0.130826
48	0xbdab7a76	-0.08372967
49	0x3cade24d	0.021226073
50	0x3ea4fb2d	0.32222882
51	0xbdf0f69d	-0.11765788
52	0x3e233138	0.15936744
53	0x3cfe6d07	0.031057848
54	0x3e151a65	0.1456085
55	0x3e59679e	0.21230933
56	0x3d3affb9	0.045654032
57	0xbe3b7695	-0.18306954
58	0xbe65365e	-0.2238402
59	0x3c3273ee	0.010891898
60	0x3e49f966	0.19724044
61	0xbe1b93f1	-0.15193154
62	0xbd5cb0f1	-0.053879682
63	0x3e267f3f	0.16259478
64	0x3d97c7e3	0.07411172
65	0xbd8edc6a	-0.069756344
66	0xbecc8251	-0.39943174
67	0x3c4c1720	0.012456685
68	0xbd829d32	-0.06377639
69	0xbe076fde	-0.13226268
70	0xbe21d0ee	-0.15802357
71	0x3d827892	0.06370653
72	0xbe306f1e	-0.17229888
73	0x3e3cedb8	0.18450058
74	0x3e214770	0.15749907
75	0x3e6a3c73	0.22874622
76	0x3da1078a	0.07862766
77	0xbc9c43d0	-0.019075304
78	0x3ba14ef8	0.004922744
79	0x3e4aeb95	0.1981643
80	0xbdd69b40	-0.1047883
81	0xbc275859	-0.010213935
82	0xbdeed24e	-0.11661206
83	0xbd21a470	-0.03946346
84	0x3dc233e0	0.094825506
85	0xbdbe7e6b	-0.09301456
86	0xbe134ebe	-0.14385507
87	0xbcf6a626	-0.030108523
88	0x3cb53033	0.02211771
89	0x3e3436ea	0.17599073
90	0x3e1f3a05	0.15549476
91	0x3d3db115	0.046311457
92	0xbc8f43b7	-0.017488344
93	0xbd94934e	-0.07254659
94	0x3d0a6da2	0.03379596
95	0x3e325573	0.17415409
96	0x3da8ae6b	0.082363926
97	0xbe1753a5	-0.14778002
98	0xbda56222	-0.08075358
99	0x3e1b5d2e	0.15172264
100	0x3dbeedc3	0.09322693
101	0xbd11d87b	-0.035606842
102	0xbe6a3f43	-0.22875695
103	0x3de9d2f9	0.11417193
104	0xbdab474f	-0.083632104
105	0xbdb78265	-0.08960418
106	0xbc99bde3	-0.018767303
107	0x3cf83dd3	0.030302918
108	0xbdd3dbf0	-0.10344684
109	0xbcaa9cbf	-0.020826695
110	0x3c3cc40c	0.011521351
111	0xbdf620bf	-0.120179646
112	0x3cd6831d	0.026185567
113	0x3d5c007e	0.053711407
114	0x3df97996	0.12181394
115	0xbd8b7cf1	-0.0681094
116	0x3e2d66eb	0.16933791
117	0x3e4daf21	0.20086338
118	0xbd7aa0f4	-0.061188653
119	0x3b7e8d24	0.003884145
120	0x3da92842	0.08259632
121	0xbb965f05	-0.004588964
122	0x3e3885f0	0.18019843
123	0x3dfc1bde	0.12310003
124	0xbe0971db	-0.13422339
125	0x3d85a4d0	0.06525576
126	0xbda45086	-0.08023171
127	0x3db9a530	0.0906471
128	0xbda27260	-0.079319715
129	0xbc0afacb	-0.008482645
130	0xbe3c5df0	-0.1839521
131	0xbdb1db1c	-0.0868437
132	0x3e315554	0.17317706
133	0x3b6c008a	0.0036011063
134	0xbe0176ad	-0.12642927
135	0xbe0f2a3c	-0.13980955
136	0xbe9b821d	-0.30372706
137	0xbe01a801	-0.12661745
138	0xbda8539f	-0.082190745
139	0xbe8c27da	-0.27374154
140	0xbc131abd	-0.008978543
141	0x3d5039de	0.050836436
142	0xbba8d57d	-0.005152403
143	0x3cb012e1	0.021493377
144	0xbecd6e80	-0.40123367
145	0x3e8f6e60	0.28013897
146	0xbc705afd	-0.014670131
147	0xbc08ea69	-0.008356669
148	0x3e55a0b7	0.20862089
149	0x3d4484d9	0.047978256
150	0x3e02e01a	0.127808
151	0xbdaa8038	-0.08325237
152	0xbe998d63	-0.29990682
153	0xbcbd9ea4	-0.023146935
154	0xbdf6db19	-0.12053508
155	0x3d8ba516	0.06818597
156	0x3e38a651	0.18032195
157	0x3cefecfd	0.02928781
158	0xbdc1fd05	-0.09472088
159	0xbb288380	-0.0025713146
160	0x3ce25dca	0.027632613
161	0x3e119800	0.1421814
162	0x3d364e0b	0.04450802
163	0x3e28fae2	0.16501954
164	0x3e66c96a	0.22537771
165	0x3d3ff689	0.046865974
166	0x3e0b6eab	0.13616435
167	0x3d22c5fe	0.0397396
168	0x3e39359d	0.18086858
169	0x3d99cafa	0.07509418
170	0xbd92c551	-0.07166541
171	0x3c4a5ea0	0.012351662
172	0x3e80e304	0.251732
173	0xbe4dbbc8	-0.20091164
174	0xbe1f3c56	-0.1555036
175	0xbec01fbc	-0.3752421
176	0x3d8e1aea	0.06938727
177	0x3da553b8	0.08072609
178	0xbdc3ed19	-0.09566707
179	0x3e4d8a0e	0.20072195
180	0xbd0efebf	-0.034910914
181	0xbe49dfd0	-0.19714284
182	0x3e3a940f	0.18220542
183	0x3dd7f0a3	0.10543945
184	0x3db066dd	0.086133696
185	0x3e0bf9fc	0.1366958
186	0x3d81af0f	0.06332218
187	0xbdd6ce0b	-0.10488518
188	0xbe1b11e7	-0.15143548
189	0x3e279c8a	0.16368309
190	0x3d412abe	0.047159903
191	0x3dd5b2c3	0.10434487
192	0x3e773e3a	0.24144831
193	0x3e32c530	0.17458034
194	0xbe92dc18	-0.28683543
195	0x3db3fb71	0.08788193
196	0x3e1dfc24	0.15428215
197	0x3db766c6	0.08955149
198	0x3da2b2ab	0.079442345
199	0x3bf062d0	0.007335998
200	0xbdaf3207	-0.08554464
201	0xbd16b712	-0.036795683
202	0x3c17eea5	0.009273206
203	0xbd2a2d19	-0.041546915
204	0x3d8bfb85	0.06835083
205	0x3d9d522c	0.07681689
206	0xbe15f1c4	-0.14643008
207	0x39d3e88c	0.00040418317
208	0xbd14e463	-0.03635062
209	0x3d5f13b6	0.054462157
210	0xbddcbc80	-0.10778141
211	0x3d7e0541	0.06201673
212	0x3cd04b85	0.025426636
213	0x3c26eb71	0.01018797
214	0xbe705ab7	-0.23472105
215	0xbe0c6d23	-0.13713507
216	0xbde41eeb	-0.1113871
217	0x3dd367c9	0.1032253
218	0xbe2311d6	-0.15924773
219	0x3dbd69d6	0.09248702
220	0xbd29e4c7	-0.041477945
221	0xbe0e1b31	-0.1387756
222	0xbdb6867b	-0.08912369
223	0xbe302859	-0.17202891
224	0x3e35c189	0.17749609
225	0x3ce623cd	0.028093243
226	0x3cd308be	0.025761005
227	0xbd7a1df0	-0.061063707
228	0xbddd6c40	-0.10811663
229	0xbe84ff88	-0.25976205
230	0x3e8ecf43	0.27892503
231	0x3d8dc97e	0.06923197
232	0x3e2aae32	0.16668013
233	0xbe1af35a	-0.15131894
234	0xbbb43e23	-0.0055005713
235	0xbcf5adcc	-0.0299901
236	0xbdb75426	-0.08951597
237	0x3d93ead8	0.07222527
238	0x3d7b0f11	0.061293665
239	0xbdf04b50	-0.11733115
240	0xbde2955a	-0.11063643
241	0xbd7c7f89	-0.061645065
242	0xbd7f8742	-0.06238485
243	0x3dd20e91	0.102566846
244	0xbe3b9fa0	-0.18322611
245	0x3df8c14a	0.12146242
246	0xbe3e6baf	-0.18595766
247	0x3db15ec1	0.08660651
248	0x3c9b1208	0.018929496
249	0xbd9fc0e9	-0.078004666
250	0x3e4701eb	0.19434325
251	0x3e0e48b2	0.13894919
252	0x3cc0fbff	0.023557661
253	0x3e134577	0.14381967
254	0x3d44dd74	0.048062757
255	0xbe924c83	-0.28574

blocks.0.sa.heads.0.value.weight f4 [16, 64]
0	0x3d54e39e	0.051974885
1	0x3d4fdb7e	0.050746433
2	0x3d1a482b	0.03766648
3	0x3d85a51c	0.06525633
4	0xbd2eeafb	-0.042704564
5	0x3d9f1ccf	0.07769167
6	0x3d62b482	0.055347927
7	0x3c60ab1b	0.01371267
8	0xbba30783	-0.0049752607
9	0x3d94154a	0.07230623
10	0xbc473b45	-0.012160127
11	0xbd12697e	-0.035745136
12	0x3b2fce6f	0.0026825925
13	0x3e41dc55	0.18931706
14	0x3d0f54fc	0.034993157
15	0xbb66cfaa	-0.0035218992
16	0x3d1b2ce2	0.0378846
17	0xbd5d273a	-0.053992487
18	0x3ae4f479	0.0017467878
19	0xbd51ed55	-0.051251728
20	0xbe11115b	-0.14166777
21	0x3d3b6d07	0.045758273
22	0x3e08bed4	0.13354045
23	0x3d4a9d2a	0.04946629
24	0x3dc63a89	0.096791334
25	0xbbda129b	-0.00665505
26	0xbc9bffd9	-0.019042896
27	0x3b0c4b31	0.0021407122
28	0x3cb35a59	0.021893667
29	0x3dabd6a8	0.08390552
30	0x3d8f123d	0.069859006
31	0xbdc9bfb2	-0.09851016
32	0x3cee1801	0.02906418
33	0x3e33d1d7	0.17560516
34	0x3d5d079e	0.053962342
35	0x3d8b79a7	0.06810313
36	0x3e203907	0.15646754
37	0x3ceca26e	0.028886046
38	0xbd5282fe	-0.051394455
39	0xbd8e8f5f	-0.069609396
40	0x3d62ecb2	0.05540151
41	0xbd7f3e87	-0.06231549
42	0xbe240c24	-0.16020256
43	0xbe4373cd	-0.19087143
44	0x3d2da6c0	0.042395353
45	0x3d15d00c	0.036575362
46	0xbd8a6512	-0.06757559
47	0x3cc83371	0.024438592
48	0x3d292d5d	0.041303027
49	0x3da0636b	0.078314625
50	0x3d12e959	0.03586707
51	0x3c89dd12	0.016829047
52	0x3e439f34	0.191037
53	0xbd4d1c55	-0.050075848
54	0xbe58afb0	-0.2116077
55	0xbde2233c	-0.11041877
56	0x3de436cb	0.111432634
57	0x3d7d15fa	0.061788537
58	0xbdcd1e6a	-0.10015567
59	0x3d430d37	0.047620025
60	0xbd600f7d	-0.05470227
61	0xbd9ec4ed	-0.07752404
62	0x3e084b25	0.13309915
63	0x3d211986	0.03933098
64	0xbddb212e	-0.10699688
65	0xbbb90d6f	-0.0056473534
66	0xbce565d7	-0.028002663
67	0x3df8fa43	0.12157109
68	0xbd31052c	-0.043217823
69	0xbdc8bfe1	-0.09802223
70	0xbd88c909	-0.066789694
71	0xbdb82879	-0.089920945
72	0xbce2bf7e	-0.027679201
73	0x3d520bfa	0.051280953
74	0x3e158b49	0.14603914
75	0xbd154f4c	-0.036452577
76	0x3e2d7d69	0.16942371
77	0x3d605fb7	0.05477878
78	0xbcab69a3	-0.020924395
79	0xbd1195ce	-0.035543256
80	0x3c55468b	0.013017307
81	0x3ce054c2	0.027384166
82	0x3d8efba5	0.06981591
83	0xbd9041e2	-0.07043816
84	0x3dd15765	0.10221747
85	0x3e46b2cf	0.19404148
86	0xbe0157e9	-0.12631191
87	0x3deef085	0.11666969
88	0x3d815563	0.06315114
89	0xbda7ab04	-0.081869155
90	0xbbf43622	-0.007452742
91	0x3d0856bd	0.033285845
92	0xbd758d02	-0.05994893
93	0x3d9cfc86	0.076653525
94	0x3d237a17	0.039911356
95	0x3b5e27bb	0.0033898193
96	0xbc9d4220	-0.01919657
97	0x3dcc8f74	0.09988299
98	0xbd9aaadc	-0.0755212
99	0xbdfe579b	-0.12419053
100	0x3d871007	0.06594854
101	0x3c79ef9b	0.01525488
102	0xbd294361	-0.041324023
103	0x3bfd68ae	0.007733426
104	0xbcc6315a	-0.024193455
105	0xbdf5e376	-0.12006275
106	0xbd6e72a7	-0.05821481
107	0xbcb9bb7e	-0.022672411
108	0xbca1b5b7	-0.019739969
109	0xbc9bf610	-0.01903823
110	0xbdcd95ee	-0.100383624
111	0x3e0b2959	0.13589992
112	0x3d0e791d	0.03478347
113	0xbdc3fd70	-0.09569824
114	0x3da384a0	0.079842806
115	0xbe110073	-0.14160328
116	0x3db51b74	0.08843127
117	0x3d838be1	0.06423164
118	0x3ca2eebd	0.01988923
119	0x3d8581bb	0.06518885
120	0x3d704401	0.058658604
121	0xbca79933	-0.020458793
122	0xb8bfe0e6	-9.14948e-05
123	0x3d97f0bf	0.074189655
124	0xbe0a4a74	-0.13504964
125	0xbc09b546	-0.008405035
126	0x3d29632c	0.041354343
127	0xbdd4f84e	-0.10398923
128	0x3b86cf24	0.0041140486
129	0x3e457b0e	0.19285223
130	0xbd8a770d	-0.067609884
131	0x3df343c4	0.1187816
132	0xbd882d57	-0.06649273
133	0x3d7792d4	0.06044276
134	0x3d938a90	0.07204163
135	0xbd2ae834	-0.041725352
136	0xbe10d9e3	-0.14145617
137	0xbdb2e6fc	-0.08735463
138	0x3d17128e	0.03688293
139	0xbc5d7602	-0.013516905
140	0xbd47f472	-0.048817106
141	0xbd188012	-0.037231512
142	0x3c8f1aad	0.017468775
143	0x3cbe4596	0.02322654
144	0xbc0361cc	-0.008018922
145	0xbc8157ac	-0.015788876
146	0x3d151bc6	0.03640344
147	0xbdbb3a25	-0.091419496
148	0xbd4ab0c6	-0.04948499
149	0xbd8d0f48	-0.0688768
150	0xbd69e8fc	-0.057106957
151	0xbe3c7517	-0.18404041
152	0xbd92c8c3	-0.071671985
153	0x3ca65f83	0.020309215
154	0xbd194b5a	-0.037425376
155	0x3dd2c2f7	0.10291093
156	0x3cb1ed1b	0.021719506
157	0xbd70316d	-0.058640886
158	0xbddad190	-0.10684502
159	0x3c953aac	0.018216453
160	0xbd03824b	-0.03210668
161	0xbd2a960b	-0.041647
162	0x3dc39dd0	0.09551585
163	0xbcb471da	-0.022026945
164	0x3c9f8c07	0.01947595
165	0x3d95bf9d	0.07311938
166	0x3d01b99a	0.031671144
167	0x3df103d8	0.11768311
168	0xbbca5a84	-0.006175341
169	0x3b40c85a	0.0029416294
170	0xbc0bdca0	-0.008536488
171	0xbdddc67e	-0.10828875
172	0xbc6708f3	-0.014101255
173	0x3ce9e4da	0.028551508
174	0xbd57769b	-0.052603345
175	0xbd19f06b	-0.037582796
176	0x3dfcf213	0.123508595
177	0xbdb17ac1	-0.086659916
178	0x3d517446	0.051136278
179	0x3dcde5dd	0.100536086
180	0xbda67c34	-0.081291586
181	0x3ca6f0bd	0.020378465
182	0xbde2884c	-0.11061153
183	0x3e1e6eba	0.15471926
184	0x3c3f4e0c	0.011676323
185	0xbce88432	-0.028383348
186	0xbcd3606d	-0.025802815
187	0xbcfbb53d	-0.03072607
188	0xbc3d2029	-0.011543312
189	0x3dfb9573	0.122843646
190	0x3e151b6f	0.14561246
191	0xbd6e2293	-0.05813844
192	0x3c2d9ca0	0.010596424
193	0xbd361988	-0.044457942
194	0xbdb41e8c	-0.08794889
195	0x3d57a8b4	0.052651122
196	0xbe202eeb	-0.15642898
197	0x3e59d49a	0.21272507
198	0xbcaa0ec8	-0.020759001
199	0xbd496273	-0.049166154
200	0x3e3f3c3d	0.18675323
201	0xbdc56863	-0.09639051
202	0x3c97406c	0.018463336
203	0xbc86c5f8	-0.01645182
204	0xbde6fd73	-0.1127881
205	0x3e007537	0.12544714
206	0xbca04bd8	-0.019567415
207	0x3d362c4e	0.044475846
208	0x3bd8affc	0.006612776
209	0xbc4537dc	-0.012037244
210	0xbcc1385d	-0.023586446
211	0xbd388f54	-0.045058563
212	0xbd8e5591	-0.06949914
213	0xbd847fff	-0.06469726
214	0x3d2bcfc7	0.0419462
215	0x3d92df4c	0.07171497
216	0xbe2c052b	-0.16798846
217	0x3dbdb658	0.09263295
218	0xbc337c97	-0.0109549975
219	0x3dfdae82	0.123868
220	0xbd9466c3	-0.07246163
221	0xbdee8df3	-0.116481684
222	0x3c43b272	0.0119444
223	0x3c9b0c2a	0.018926699
224	0x3ddc8106	0.10766797
225	0x3d57426f	0.05255359
226	0x3d970580	0.07374096
227	0x3c9f3ea9	0.019439058
228	0xbd7a1b91	-0.061061446
229	0xbd443dfe	-0.047910683
230	0x3dbf3b0a	0.09337433
231	0xbd3bcb96	-0.04584845
232	0x3bf05609	0.007334475
233	0xbd3002e0	-0.04297149
234	0xbe0cd0c7	-0.13751517
235	0x3d8c1d4b	0.06841525
236	0x3deb3e15	0.114864506
237	0x3dcd0ac1	0.10011817
238	0x3da9ee46	0.082974
239	0xbd28028e	-0.04101806
240	0xbdcede61	-0.10101009
241	0x3c8ce86b	0.01720067
242	0x3e61a44e	0.22035334
243	0x3d1ae684	0.037817493
244	0x3d347bbd	0.04406332
245	0x3c436303	0.011925462
246	0x3dddb4f9	0.108255334
247	0x3d98a9a6	0.07454233
248	0xbddce56f	-0.107859485
249	0x3d801bc7	0.06255298
250	0x3e17027d	0.14747043
251	0xbd7638aa	-0.060112633
252	0xbdbf34db	-0.09336253
253	0x3cb9300a	0.022605915
254	0xbe195ea3	-0.14977507
255	0x3e3fae12	0.18718746

blocks.0.sa.heads.1.tril f4 [32, 32]
0	0x3f800000	1.0
1	0x00000000	0.0
2	0x00000000	0.0
3	0x00000000	0.0
4	0x00000000	0.0
5	0x00000000	0.0
6	0x00000000	0.0
7	0x00000000	0.0
8	0x00000000	0.0
9	0x00000000	0.0
10	0x00000000	0.0
11	0x00000000	0.0
12	0x00000000	0.0
13	0x00000000	0.0
14	0x00000000	0.0
15	0x00000000	0.0
16	0x00000000	0.0
17	0x00000000	0.0
18	0x00000000	0.0
19	0x00000000	0.0
20	0x00000000	0.0
21	0x00000000	0.0
22	0x00000000	0.0
23	0x00000000	0.0
24	0x00000000	0.0
25	0x00000000	0.0
26	0x00000000	0.0
27	0x00000000	0.0
28	0x00000000	0.0
29	0x00000000	0.0
30	0x00000000	0.0
31	0x00000000	0.0
32	0x3f800000	1.0
33	0x3f800000	1.0
34	0x00000000	0.0
35	0x00000000	0.0
36	0x00000000	0.0
37	0x00000000	0.0
38	0x00000000	0.0
39	0x00000000	0.0
40	0x00000000	0.0
41	0x00000000	0.0
42	0x00000000	0.0
43	0x00000000	0.0
44	0x00000000	0.0
45	0x00000000	0.0
46	0x00000000	0.0
47	0x00000000	0.0
48	0x00000000	0.0
49	0x00000000	0.0
50	0x00000000	0.0
51	0x00000000	0.0
52	0x00000000	0.0
53	0x00000000	0.0
54	0x00000000	0.0
55	0x00000000	0.0
56	0x00000000	0.0
57	0x00000000	0.0
58	0x00000000	0.0
59	0x00000000	0.0
60	0x00000000	0.0
61	0x00000000	0.0
62	0x00000000	0.0
63	0x00000000	0.0
64	0x3f800000	1.0
65	0x3f800000	1.0
66	0x3f800000	1.0
67	0x00000000	0.0
68	0x00000000	0.0
69	0x00000000	0.0
70	0x00000000	0.0
71	0x00000000	0.0
72	0x00000000	0.0
73	0x00000000	0.0
74	0x00000000	0.0
75	0x00000000	0.0
76	0x00000000	0.0
77	0x00000000	0.0
78	0x00000000	0.0
79	0x00000000	0.0
80	0x00000000	0.0
81	0x00000000	0.0
82	0x00000000	0.0
83	0x00000000	0.0
84	0x00000000	0.0
85	0x00000000	0.0
86	0x00000000	0.0
87	0x00000000	0.0
88	0x00000000	0.0
89	0x00000000	0.0
90	0x00000000	0.0
91	0x00000000	0.0
92	0x00000000	0.0
93	0x00000000	0.0
94	0x00000000	0.0
95	0x00000000	0.0
96	0x3f800000	1.0
97	0x3f800000	1.0
98	0x3f800000	1.0
99	0x3f800000	1.0
100	0x00000000	0.0
101	0x00000000	0.0
102	0x00000000	0.0
103	0x00000000	0.0
104	0x00000000	0.0
105	0x00000000	0.0
106	0x00000000	0.0
107	0x00000000	0.0
108	0x00000000	0.0
109	0x00000000	0.0
110	0x00000000	0.0
111	0x00000000	0.0
112	0x00000000	0.0
113	0x00000000	0.0
114	0x00000000	0.0
115	0x00000000	0.0
116	0x00000000	0.0
117	0x00000000	0.0
118	0x00000000	0.0
119	0x00000000	0.0
120	0x00000000	0.0
121	0x00000000	0.0
122	0x00000000	0.0
123	0x00000000	0.0
124	0x00000000	0.0
125	0x00000000	0.0
126	0x00000000	0.0
127	0x00000000	0.0
128	0x3f800000	1.0
129	0x3f800000	1.0
130	0x3f800000	1.0
131	0x3f800000	1.0
132	0x3f800000	1.0
133	0x00000000	0.0
134	0x00000000	0.0
135	0x00000000	0.0
136	0x00000000	0.0
137	0x00000000	0.0
138	0x00000000	0.0
139	0x00000000	0.0
140	0x00000000	0.0
141	0x00000000	0.0
142	0x00000000	0.0
143	0x00000000	0.0
144	0x00000000	0.0
145	0x00000000	0.0
146	0x00000000	0.0
147	0x00000000	0.0
148	0x00000000	0.0
149	0x00000000	0.0
150	0x00000000	0.0
151	0x00000000	0.0
152	0x00000000	0.0
153	0x00000000	0.0
154	0x00000000	0.0
155	0x00000000	0.0
156	0x00000000	0.0
157	0x00000000	0.0
158	0x00000000	0.0
159	0x00000000	0.0
160	0x3f800000	1.0
161	0x3f800000	1.0
162	0x3f800000	1.0
163	0x3f800000	1.0
164	0x3f800000	1.0
165	0x3f800000	1.0
166	0x00000000	0.0
167	0x00000000	0.0
168	0x00000000	0.0
169	0x00000000	0.0
170	0x00000000	0.0
171	0x00000000	0.0
172	0x00000000	0.0
173	0x00000000	0.0
174	0x00000000	0.0
175	0x00000000	0.0
176	0x00000000	0.0
177	0x00000000	0.0
178	0x00000000	0.0
179	0x00000000	0.0
180	0x00000000	0.0
181	0x00000000	0.0
182	0x00000000	0.0
183	0x00000000	0.0
184	0x00000000	0.0
185	0x00000000	0.0
186	0x00000000	0.0
187	0x00000000	0.0
188	0x00000000	0.0
189	0x00000000	0.0
190	0x00000000	0.0
191	0x00000000	0.0
192	0x3f800000	1.0
193	0x3f800000	1.0
194	0x3f800000	1.0
195	0x3f800000	1.0
196	0x3f800000	1.0
197	0x3f800000	1.0
198	0x3f800000	1.0
199	0x00000000	0.0
200	0x00000000	0.0
201	0x00000000	0.0
202	0x00000000	0.0
203	0x00000000	0.0
204	0x00000000	0.0
205	0x00000000	0.0
206	0x00000000	0.0
207	0x00000000	0.0
208	0x00000000	0.0
209	0x00000000	0.0
210	0x00000000	0.0
211	0x00000000	0.0
212	0x00000000	0.0
213	0x00000000	0.0
214	0x00000000	0.0
215	0x00000000	0.0
216	0x00000000	0.0
217	0x00000000	0.0
218	0x00000000	0.0
219	0x00000000	0.0
220	0x00000000	0.0
221	0x00000000	0.0
222	0x00000000	0.0
223	0x00000000	0.0
224	0x3f800000	1.0
225	0x3f800000	1.0
226	0x3f800000	1.0
227	0x3f800000	1.0
228	0x3f800000	1.0
229	0x3f800000	1.0
230	0x3f800000	1.0
231	0x3f800000	1.0
232	0x00000000	0.0
233	0x00000000	0.0
234	0x00000000	0.0
235	0x00000000	0.0
236	0x00000000	0.0
237	0x00000000	0.0
238	0x00000000	0.0
239	0x00000000	0.0
240	0x00000000	0.0
241	0x00000000	0.0
242	0x00000000	0.0
243	0x00000000	0.0
244	0x00000000	0.0
245	0x00000000	0.0
246	0x00000000	0.0
247	0x00000000	0.0
248	0x00000000	0.0
249	0x00000000	0.0
250	0x00000000	0.0
251	0x00000000	0.0
252	0x00000000	0.0
253	0x00000000	0.0
254	0x00000000	0.0
255	0x00000000	0.0

blocks.0.sa.heads.1.key.weight f4 [16, 64]
0	0xbdd79e74	-0.105282694
1	0x3e78ca0c	0.24295825
2	0xbdc8c6c7	-0.09803539
3	0xbcd4ddf4	-0.025984742
4	0x3c841428	0.016122892
5	0x3c93f09a	0.018059064
6	0x3cd12c0c	0.025533698
7	0x3cd191b9	0.025582181
8	0xbd833e3c	-0.06408355
9	0xbdb0f422	-0.08640315
10	0xbca879eb	-0.020565948
11	0xba996ad5	-0.0011704812
12	0x3e8f3295	0.2796828
13	0x3e7c9cbf	0.24669169
14	0x3e57fa13	0.2109149
15	0xbc05fd58	-0.008178078
16	0x3e459249	0.19294085
17	0x3df891cb	0.12137183
18	0xbbb0e1d1	-0.005398013
19	0xbe522216	-0.20520815
20	0xbdbcf3b3	-0.092261694
21	0xbe3e4a6b	-0.18583076
22	0xbdc5cc6b	-0.0965813
23	0xbd9ee1b9	-0.07757897
24	0xbe082650	-0.13295865
25	0x3d735e54	0.05941613
26	0xbdd61603	-0.10453417
27	0x3db3d10e	0.087801084
28	0x3e36c585	0.17848785
29	0xbc695c9e	-0.014243273
30	0x3ec4bab1	0.38423684
31	0x3e02f7ea	0.12789884
32	0xba224694	-0.00061903265
33	0xbe4fba5c	-0.20285934
34	0xbdcb1d73	-0.09917726
35	0xbe656fc4	-0.22405916
36	0xbe96414c	-0.29346693
37	0x3e08eb25	0.1337095
38	0xbe43df30	-0.19128108
39	0xbe4bff51	-0.19921614
40	0x3da4a5d6	0.08039443
41	0xbd160623	-0.036626946
42	0xbd7e2281	-0.062044624
43	0x3b53d61a	0.003232366
44	0x3e2226fc	0.15835184
45	0x3e3cc5aa	0.18434778
46	0x3e229083	0.1587544
47	0xbb2d6990	-0.0026460625
48	0xbdf08a66	-0.117451474
49	0x3e343e56	0.17601904
50	0xbc2a6ec6	-0.010402387
51	0x3e3212b8	0.17389953
52	0xbd1a10a6	-0.037613533
53	0x3dcb5be6	0.099296376
54	0xbe757baa	-0.23972955
55	0xbdaa17fe	-0.083053574
56	0x3dc38316	0.09546487
57	0xbe15acb3	-0.14616661
58	0xbe880f68	-0.26574254
59	0x3d0d8dff	0.034559246
60	0x3e36610b	0.17810456
61	0x3e0ffa9f	0.14060448
62	0xbe001edd	-0.12511773
63	0x3d0ed620	0.034872174
64	0x3e8202ec	0.25392854
65	0x3d038088	0.032105
66	0x3e6126e3	0.2198749
67	0xbe215c6d	-0.15757914
68	0x3c2f367b	0.0106941415
69	0x3e988b3e	0.29793733
70	0x3d92e439	0.07172436
71	0xbe412c0c	-0.18864459
72	0x3de91c3c	0.113823384
73	0xbd3c6051	-0.045990292
74	0x3e6baa59	0.23014201
75	0xbd1efa25	-0.038812775
76	0x3c7a91a4	0.0152935125
77	0x3da0d9cb	0.07854041
78	0x3ecb249c	0.39676368
79	0xbdb96486	-0.090523764
80	0xbe08860e	-0.13332388
81	0xbeac6ebf	-0.33678243
82	0x3eb147ef	0.34625193
83	0xbdc4b59d	-0.096049525
84	0x3d59e73c	0.053199038
85	0x3c5775ba	0.013150627
86	0x3e668547	0.22511779
87	0x3d9300ab	0.07177862
88	0xbe2b41cd	-0.1672432
89	0xbc9e2820	-0.019306242
90	0xbe2be367	-0.16785966
91	0x3c705888	0.014669545
92	0x3e546563	0.20741801
93	0x3e62e7e7	0.22158776
94	0x3ad932c5	0.0016570917
95	0xbd8b3917	-0.067979984
96	0xbe4904a9	-0.19630684
97	0x3cb9597e	0.022625681
98	0xbda78e41	-0.0818143
99	0x3e64962f	0.22322915
100	0xbe5a27f9	-0.21304311
101	0x3e384de4	0.17998463
102	0x3e3b5e65	0.18297727
103	0xbd0643ba	-0.032779433
104	0xbc1ce07a	-0.009575004
105	0x3d8e41dc	0.069461554
106	0x3de6ea12	0.11275114
107	0x3c458c49	0.012057372
108	0xbdd74d2b	-0.105127655
109	0x3c22c910	0.009935632
110	0xba8b251c	-0.0010615918
111	0xbdc3286b	-0.095291935
112	0xbe10148c	-0.14070338
113	0xbe4af874	-0.1982134
114	0x3d0352a6	0.03206124
115	0xbcf5c827	-0.030002667
116	0xbe8dd7d1	-0.27703717
117	0xbc4478eb	-0.01199172
118	0x3c9c5938	0.019085512
119	0x3d86666c	0.06562504
120	0xbb8e96ce	-0.0043514734
121	0xbd580ba9	-0.052745495
122	0x3e332703	0.1749535
123	0xbe6fc32c	-0.23414296
124	0xbe60d187	-0.21954928
125	0xbbdb96e0	-0.0067013353
126	0x3dd5a347	0.10431533
127	0x3c0f3034	0.00873952
128	0xbd9c4ed3	-0.07632222
129	0xbd462963	-0.048379313
130	0xbdcdb5bc	-0.10044429
131	0xbdf44b22	-0.11928393
132	0x3e7be785	0.24600036
133	0x3e36ecb5	0.17863734
134	0xbd4ed316	-0.050494276
135	0x3c7102e2	0.01471016
136	0xbdbffa3f	-0.093739025
137	0xbceafccc	-0.028684996
138	0xbd9beee5	-0.07613925
139	0xbe1fe494	-0.1561454
140	0xbeb53190	-0.35389376
141	0x3d2d7560	0.042348266
142	0x3d381b85	0.04494812
143	0xbbaf678a	-0.005352919
144	0x3e7564b4	0.23964196
145	0x3e1c6d18	0.15275991
146	0x3df16358	0.117865264
147	0x3b0bca32	0.0021330235
148	0xbc8c12b2	-0.017098758
149	0x3d05e289	0.032686744
150	0xbd7ad27e	-0.061235897
151	0xbda533dd	-0.08066533
152	0x3e01a8c7	0.1266204
153	0x3db9943e	0.09061478
154	0x3daf0461	0.08545757
155	0x3b57af29	0.00329108
156	0xbcfe1c98	-0.031019494
157	0xbdbc4d59	-0.091944404
158	0xbe02f01c	-0.12786907
159	0x3e9e6f85	0.30944458
160	0xbe0b320e	-0.13593313
161	0x3d7e3611	0.06206328
162	0xbd2e43db	-0.04254518
163	0x3d6c3c88	0.057674915
164	0xbd7dac2b	-0.06193177
165	0x3c39c778	0.011339061
166	0xbde337c2	-0.11094619
167	0x3e4315bc	0.1905126
168	0xbd8a2218	-0.06744784
169	0x3e4228c8	0.1896087
170	0xbe2aec4f	-0.16691707
171	0x3d971542	0.073771015
172	0xbde0bc06	-0.109733626
173	0x3cf7f34e	0.030267384
174	0xbcc9addd	-0.024619037
175	0xbe929ee3	-0.28636846
176	0x3d9301ba	0.07178064
177	0x3e133f34	0.14379579
178	0xbe777c03	-0.241684
179	0x3df24196	0.11828916
180	0x3d481714	0.048850134
181	0x3e4d47a5	0.20046861
182	0xbd49014c	-0.049073502
183	0x378bada6	1.6650953e-05
184	0x3db5b9e8	0.088733494
185	0x3dde0eff	0.10842704
186	0xbda09285	-0.078404464
187	0x3e0357a3	0.128264
188	0x3e1987ed	0.14993258
189	0xbd91943c	-0.071083516
190	0x3c35f0c4	0.011104766
191	0xbe257c55	-0.1616071
192	0xbe16a56a	-0.14711538
193	0x3e59198c	0.21201152
194	0xbe0f60c0	-0.14001751
195	0x3dbece10	0.09316647
196	0xbea05edd	-0.31322375
197	0x3e269a2d	0.16269751
198	0x3d0c4922	0.034249432
199	0x3d858a82	0.06520559
200	0xbdd5d5c7	-0.104411654
201	0x3dfe2fe7	0.124114804
202	0x3e3eed1e	0.1864514
203	0xbd8f00cb	-0.06982573
204	0x3e443a08	0.19162762
205	0xbd1c65d0	-0.038183033
206	0xbe80db18	-0.25167155
207	0xbe47d413	-0.19514494
208	0xbeb5b3c6	-0.3548872
209	0x3db487db	0.08814975
210	0x3e38651c	0.1800732
211	0x3e37e171	0.17957093
212	0xbd9de045	-0.07708792
213	0xbd420448	-0.047367364
214	0x3e1ffae7	0.15623055
215	0xbe62ee1d	-0.22161146
216	0x3e2fee2f	0.17180704
217	0x3de36003	0.11102297
218	0xbdf867ca	-0.12129171
219	0xbce1fece	-0.02758732
220	0xbe5e6215	-0.21717103
221	0x3ce7d32a	0.028298933
222	0xbe03e284	-0.12879378
223	0x3e2c183b	0.16806118
224	0xbda257ef	-0.07926928
225	0x3d1e02cb	0.038576882
226	0xbda96cae	-0.08272682
227	0xbeaf929c	-0.34291542
228	0x3e9a9a74	0.30195963
229	0xbc35b1e7	-0.0110897785
230	0x3e5283c9	0.20558085
231	0xbdf42ca5	-0.11922578
232	0xbdffc5df	-0.12488913
233	0xbd8c7a03	-0.068592094
234	0x3e08f4e2	0.13374665
235	0x3c828757	0.015933676
236	0x3e9dc07e	0.30810922
237	0xbe5d938c	-0.21638316
238	0x3d73f942	0.059563883
239	0x3e72961f	0.23690079
240	0x3e054453	0.13014345
241	0x3d906849	0.07051141
242	0x3cda738e	0.026666429
243	0xbe94dff5	-0.29077116
244	0xbd50303c	-0.05082725
245	0xbe5a499b	-0.21317141
246	0x3dae9955	0.085253395
247	0x3e58140b	0.21101396
248	0xbda57c56	-0.08080356
249	0x3de370b0	0.11105478
250	0xbe2f984d	-0.17147942
251	0xbd9608fe	-0.07325934
252	0x3dcd54f6	0.10025971
253	0xbc6b98a2	-0.014379652
254	0xbd557b00	-0.052119255
255	0xbe866dbc	-0.26255596
